models/ant__ppo__1__1767294428_final.pth (torch, 55653 bytes, 12 tensors)

actor_logstd f4 [1, 8]
0.0 0.0 0.0 0.0 0.0 0.0 0.0 0.0
00000000: 0000 0000 0000 0000 0000 0000 0000 0000
00000010: 0000 0000 0000 0000 0000 0000 0000 0000

critic.0.weight f4 [64, 27]
0.094007194 -0.24675182 0.03868906 0.16150083 0.12848914 -0.014196855 -0.30975795 -0.13083944
-0.115390114 -0.352809 0.3077002 -0.25763965 -0.030364862 -0.11219761 0.23799433 -0.14708625
-0.019366749 0.0060893674 0.34568432 -0.16963881 -0.08210778 -0.11326822 -0.05608064 0.09190706
0.022309244 -0.18840806 -0.06627347 -0.2759269 0.32673964 -0.022413991 0.33517033 0.057891883
0.017611418 0.083320834 0.059950124 -0.32390204 -0.095497906 -0.20031762 -0.08924667 0.09439166
0.08875079 -0.05020336 -0.15092145 0.18335025 -0.34681043 -0.08993314 0.16488114 0.096747205
0.023858743 0.12629168 0.15117025 0.19387339 0.02453229 0.081372485 0.07852988 -0.07604076
0.14063424 -0.040153194 -0.13575518 0.058634374 -0.1062642 -0.36629266 0.023554709 -0.17332308
-0.21098955 -0.16250359 -0.36928257 0.18240863 0.2190394 0.14706926 0.024737686 -0.109601215
-0.17160892 -0.120653234 0.117733754 0.12290073 -0.09679689 0.24903028 0.06687107 0.04940595
0.13084139 0.039196942 -0.05252314 -0.2790202 0.15535647 -0.31105423 0.33990723 0.007591072
-0.04526003 -0.17900099 0.2122691 0.16414733 0.41563 0.019327996 0.053814564 0.17902677
0.033351995 -0.05087869 0.18516326 0.0686924 -0.22041517 -0.103586376 0.2277137 0.10338636
0.104328685 0.0321969 0.0021546897 -0.10708168 -0.06294515 -0.3296761 -0.16975267 -0.04130602
-0.034402605 0.015422518 0.09027994 0.09620815 0.06451098 0.27857918 0.118185535 -0.31170848
-0.062164705 -0.22042881 0.05415544 -0.29287782 0.06487648 0.089801475 -0.26344866 -0.10802257
-0.028119136 0.03940804 0.3440398 -0.16302098 -0.08763485 0.18590309 -0.08451345 0.17696252
0.13051185 0.035563026 -0.008402703 0.085185476 0.019385735 -0.21923271 0.03607384 -0.2283681
-0.20008364 -0.32706523 -0.13399754 0.09346134 0.1064359 -0.004401877 0.042154204 -0.32950556
0.33564705 -0.11018345 -0.025649423 -0.10170199 -0.23720124 0.1721646 0.041082364 0.14341694
-0.020630341 0.17353228 0.1087345 0.08575134 0.00857998 -0.26481244 -0.28539908 0.049963295
0.08555708 -0.1764719 0.08799676 0.06321109 -0.1041231 -0.25046706 -0.2252366 -0.5368691
-0.1344456 0.078236565 -0.1546327 -0.07941823 0.09162221 -0.1806255 -0.097546086 0.09025323
-0.31675023 -0.02736066 -0.018165296 0.09155644 0.054997396 -0.087188296 -0.16415201 0.11983299
0.043482244 -0.0052027125 0.114064015 0.4264224 -0.46300852 -0.19133167 0.03205539 0.084736556
-0.16916205 -0.078592315 0.33431372 -0.21643804 0.03895734 -0.37670487 -0.08846196 0.2133011
0.037345022 -0.11425492 0.22829685 0.41500664 -0.28533584 0.18814471 0.034685623 0.040589184
0.1946153 -0.12971358 -0.08266165 0.1765219 -0.17485231 0.04398135 0.08324899 0.16476178
-0.089956746 0.14763172 0.028554676 -0.026659448 0.09652668 -0.118951716 -0.12637712 0.3464016
-0.13148662 0.12869287 0.24026915 0.11603522 0.31623164 0.018521946 -0.08696583 0.09665686
0.1502726 -0.069340296 0.4472491 -0.17007571 -0.06104529 0.30783707 0.36681697 0.17712346
0.22657534 0.028802339 0.14499351 0.20443314 -0.04674242 -0.03293836 0.0713797 0.0008296296
00000000: d886 c03d 82ac 7cbe 6b78 1e3d 7960 253e
00000010: a892 033e ed99 68bc 9898 9ebe c6fa 05be
00000020: a751 ecbd 62a3 b4be e18a 9d3e 58e9 83be
00000030: bbbf f8bc dcc7 e5bd c9b4 733e c79d 16be
00000040: 04a7 9ebc 5189 c73b 89fd b03e ccb5 2dbe
00000050: 2028 a8bd 2bf9 e7bd d0b4 65bd c539 bc3d
00000060: e0c1 b63c 0bee 40be 63ba 87bd 4a46 8dbe
00000070: 6b4a a73e 8c9d b7bc 729b ab3e 0a20 6d3d
00000080: d245 903c 1da4 aa3d 438e 753d 7dd6 a5be
00000090: 6894 c3bd 1020 4dbe f5c6 b6bd 6a50 c13d
000000a0: f9c2 b53d 0aa2 4dbd 278b 1abe 2bc0 3b3e
000000b0: 2391 b1be de2e b8bd 9ad6 283e 6623 c63d
000000c0: 6973 c33c 9b52 013e 60cc 1a3e bf86 463e
000000d0: f1f7 c83c 9ea6 a63d 46d4 a03d 42bb 9bbd
000000e0: 6c02 103e ad77 24bd 6803 0bbe 992a 703d
000000f0: 0ba1 d9bd b68a bbbe cef5 c03c 9b7b 31be
00000100: a50d 58be 5767 26be 9b12 bdbe 54c9 3a3e
00000110: dd4b 603e 5399 163e b0a6 ca3c 9a76 e0bd
00000120: 40ba 2fbe 0b19 f7bd 651e f13d 61b3 fb3d
00000130: 733d c6bd cb01 7f3e b3f3 883d e55d 4a3d
00000140: 49fb 053e f98c 203d 8122 57bd bcdb 8ebe
00000150: c415 1f3e 8042 9fbe 5208 ae3e 87be f83b
00000160: 9562 39bd 094c 37be 125d 593e 3d16 283e
00000170: 75cd d43e bf55 9e3c a96c 5c3d cb52 373e
00000180: 1a9c 083d 2c66 50bd 709b 3d3e 9aae 8c3d
00000190: 84b4 61be 1825 d4bd c82d 693e 3abc d33d
000001a0: 47aa d53d e6e0 033d b235 0d3b a44d dbbd
000001b0: 63e9 80bd 4ecb a8be a5d3 2dbe 8030 29bd
000001c0: bfe9 0cbd bbae 7c3c b0e4 b83d c708 c53d
000001d0: 551e 843d eea1 8e3e 420b f23d 4198 9fbe
000001e0: 6ba0 7ebd 17b8 61be 18d2 5d3d 15f4 95be
000001f0: f6dd 843d d6e9 b73d bee2 86be f03a ddbd
00000200: 1a5a e6bc 536a 213d fc25 b03e f9ee 26be
00000210: e679 b3bd 615d 3e3e 6315 adbd aa35 353e
00000220: e6a4 053e 89aa 113d 7eab 09bc b975 ae3d
00000230: d5ce 9e3c 8a7e 60be 2ac2 133d 54d9 69be
00000240: bae2 4cbe 1875 a7be a736 09be a968 bf3d
00000250: 11fb d93d 9f3d 90bb e3a9 2c3d f4b4 a8be
00000260: eed9 ab3e dca7 e1bd bd1e d2bc 2249 d0bd
00000270: e2e4 72be eb4b 303e fb45 283d e4db 123e
00000280: f600 a9bc 72b2 313e 32b0 de3d 669e af3d
00000290: 0b93 0c3c 7f95 87be d41f 92be 50a6 4c3d
000002a0: 8d38 af3d 0db5 34be a537 b43d d174 813d
000002b0: 7e3e d5bd 383d 80be 6ca4 66be 4170 09bf
000002c0: 1bac 09be 7e3a a03d 0958 1ebe 06a6 a2bd
000002d0: 6da4 bb3d e4f5 38be 3ec6 c7bd afd6 b83d
000002e0: 162d a2be 7623 e0bc 63cf 94bc f181 bb3d
000002f0: f344 613d c78f b2bd 7717 28be 006b f53d
00000300: 701a 323d 847b aabb 659a e93d 0954 da3e
00000310: 740f edbe 73ec 43be 834c 033d 5c8a ad3d
00000320: d138 2dbe 02f5 a0bd 2b2b ab3e efa1 5dbe
00000330: bb91 1f3d 76df c0be 8b2b b5bd 9b6b 5a3e
00000340: 18f7 183d 7cfe e9bd a6c6 693e c07b d43e
00000350: 8a17 92be 02a9 403e 8312 0e3d d840 263d
00000360: 3c49 473e a3d3 04be 834a a9bd 28c2 343e
00000370: 7c0c 33be ca25 343d 727e aa3d 50b7 283e
00000380: 3e3b b8bd c52c 173e 7feb e93c ea64 dabc
00000390: c8af c53d f59c f3bd 0169 01be 8d5b b13e
000003a0: 6ea4 06be 10c8 033e 1e09 763e e0a3 ed3d
000003b0: 1de9 a13e 56bb 973c 241b b2bd 08f4 c53d
000003c0: 0fe1 193e 4902 8ebd d6fd e43e 5428 2ebe
000003d0: a00a 7abd d29c 9d3e 6fcf bb3e da5f 353e
000003e0: 5e03 683e e2f2 eb3c 2e79 143e ec56 513e
000003f0: fb74 3fbd 60ea 06bd 852f 923d 807b 593a

critic.0.bias f4 [64]
0.0 0.0 0.0 0.0 0.0 0.0 0.0 0.0
0.0 0.0 0.0 0.0 0.0 0.0 0.0 0.0
0.0 0.0 0.0 0.0 0.0 0.0 0.0 0.0
0.0 0.0 0.0 0.0 0.0 0.0 0.0 0.0
0.0 0.0 0.0 0.0 0.0 0.0 0.0 0.0
0.0 0.0 0.0 0.0 0.0 0.0 0.0 0.0
0.0 0.0 0.0 0.0 0.0 0.0 0.0 0.0
0.0 0.0 0.0 0.0 0.0 0.0 0.0 0.0
00000000: 0000 0000 0000 0000 0000 0000 0000 0000
00000010: 0000 0000 0000 0000 0000 0000 0000 0000
00000020: 0000 0000 0000 0000 0000 0000 0000 0000
00000030: 0000 0000 0000 0000 0000 0000 0000 0000
00000040: 0000 0000 0000 0000 0000 0000 0000 0000
00000050: 0000 0000 0000 0000 0000 0000 0000 0000
00000060: 0000 0000 0000 0000 0000 0000 0000 0000
00000070: 0000 0000 0000 0000 0000 0000 0000 0000
00000080: 0000 0000 0000 0000 0000 0000 0000 0000
00000090: 0000 0000 0000 0000 0000 0000 0000 0000
000000a0: 0000 0000 0000 0000 0000 0000 0000 0000
000000b0: 0000 0000 0000 0000 0000 0000 0000 0000
000000c0: 0000 0000 0000 0000 0000 0000 0000 0000
000000d0: 0000 0000 0000 0000 0000 0000 0000 0000
000000e0: 0000 0000 0000 0000 0000 0000 0000 0000
000000f0: 0000 0000 0000 0000 0000 0000 0000 0000

critic.2.weight f4 [64, 64]
0.15009336 0.3616543 -0.101650916 0.0262499 -0.28758103 -0.10592951 -0.03785695 -0.028646538
-0.37857115 -0.0039902315 0.19337623 -0.24859488 0.059234723 -0.06436347 0.14406861 0.26110145
-0.0164941 -0.12457782 -0.021568429 -0.0166862 0.20776565 -0.015868014 -0.12672506 0.12298657
0.17908524 -0.2456857 -0.10055846 0.10239983 0.2651823 -0.012659838 0.16265845 0.041423876
0.16946153 -0.1313099 0.18653283 -0.06903073 -0.25993583 0.28880295 -0.19865647 0.06469938
0.01677876 0.2243913 0.3472058 -0.12858531 -0.21329917 0.038504396 0.054439865 -0.030209675
0.18101043 0.031041933 0.030145274 -0.07449251 0.4402269 0.34754717 0.006876695 0.028623763
-0.3729148 -0.12218302 0.19828814 0.098478146 -0.04908986 -0.05084092 0.026584042 0.120311394
0.117232606 -0.0020881235 -0.059236225 0.09165241 -0.093636505 0.51327586 0.23325819 0.20010415
0.30773085 -0.022526484 0.18759958 -0.28732407 0.20130472 -0.12010044 -0.035856493 -0.22689337
-0.30350664 -0.2565359 -0.044067755 -0.09531829 0.11980783 -0.03752325 -0.033905797 -0.00021412707
0.17661068 -0.02929757 0.1274217 0.0041266796 -0.50552326 0.06941647 -0.0042096903 -0.007916649
0.1422604 -0.118547745 0.26747698 -0.0076023396 0.0639573 -0.013820439 0.293872 0.07132306
-0.12238604 -0.1344357 0.08294719 0.1213382 0.050529536 -0.09619856 -0.26165727 -0.11159713
0.08582635 -0.11567886 -0.25487557 -0.20437776 0.11761995 0.18699457 -0.2950991 -0.23682697
-0.12638347 0.13196594 -0.11393777 -0.07147237 0.20793565 -0.11471211 -0.016776517 0.12558477
-0.09424557 0.11590707 0.10114906 0.11829398 -0.020805817 -0.19630551 0.1617716 -0.21987602
0.26610276 0.20225185 0.07847071 -0.18346399 0.10688786 0.16580309 0.06549923 0.09565383
0.021319702 0.13371117 0.09159033 0.076837264 0.5141477 -0.19903107 -0.18696216 0.11607537
-0.20209983 0.18559381 -0.19300936 -0.10987426 0.04749293 -0.06897463 0.03588411 0.15130205
0.12538525 -0.014052072 -0.112464204 -0.3919304 -0.05241931 -0.008499572 -0.18205169 -0.05044014
0.26877642 0.018755473 -0.042725895 0.14324455 -0.07553539 -0.22526611 -0.40218124 -0.03692635
-0.26280335 -0.05001366 -0.03935661 -0.26397994 -0.15106884 -0.018562125 -0.2921197 -0.0045915158
-0.0035453034 0.2797462 0.1168356 0.04228422 -0.21971583 0.13104287 0.052677654 -0.38317588
0.23771743 -0.114545785 -0.17949955 -0.054185506 0.47029483 0.14884952 0.23552921 0.07813353
-0.2629751 0.20606351 0.036228057 0.16991644 -0.019465026 -0.20067084 -0.2205777 -0.30959472
0.020192042 0.0047705965 -0.026403772 -0.043665156 0.07798019 -0.05751107 -0.08576646 -0.15699129
-0.115066774 0.13725287 -0.03827304 -0.058492545 0.23084037 -0.20388302 -0.07670374 -0.040511746
-0.03138585 0.36619782 0.07977176 0.14862825 0.12308808 0.32496503 -0.06622357 0.02409061
0.09858377 -0.15156306 0.122937635 0.27277616 0.2260555 0.12693177 -0.14694375 0.24227582
-0.3017446 0.09163434 0.098576985 0.08062862 0.16980532 0.3017727 -0.18601818 0.13918658
-0.060537357 0.121070825 0.41571784 0.1480632 0.08542965 -0.04636806 0.027911484 0.088148646
00000000: 13b2 193e c12a b93e 5b2e d0bd 080a d73c
00000010: d23d 93be 92f1 d8bd e40f 1bbd 25ac eabc
00000020: 14d4 c1be 7dc0 82bb 6b04 463e a88f 7ebe
00000030: 1ca0 723d ffd0 83bd b986 133e 17af 853e
00000040: a31e 87bc a822 ffbd 46b0 b0bc 7fb1 88bc
00000050: 85c0 543e a3fd 81bc 37c4 01be 62e0 fb3d
00000060: 1f62 373e 0895 7bbe 98f1 cdbd 01b7 d13d
00000070: f9c5 873e 366b 4fbc f08f 263e 15ac 293d
00000080: 5387 2d3e 1a76 06be 7602 3f3e fc5f 8dbd
00000090: 4f16 85be fbdd 933e 9a6c 4bbe 1c81 843d
000000a0: 9c73 893c d5c6 653e f5c4 b13e deab 03be
000000b0: 196b 5abe c9b6 1d3d 56fc 5e3d 487a f7bc
000000c0: cc5a 393e a74b fe3c 39f3 f63c 878f 98bd
000000d0: 6c65 e13e b4f1 b13e e655 e13b 627c ea3c
000000e0: b0ee bebe 173b fabd 0c0c 4b3e e9ae c93d
000000f0: 7312 49bd 923e 50bd c7c6 d93c d265 f63d
00000100: a617 f03d e6d8 08bb afa1 72bd 42b4 bb3d
00000110: 7fc4 bfbd 0c66 033f 3cdb 6e3e 1ae8 4c3e
00000120: e68e 9d3e 7689 b8bc 1b1a 403e 241c 93be
00000130: d322 4e3e 38f7 f5bd 42de 12bd bc56 68be
00000140: 3965 9bbe ac58 83be 6480 34bd 3c36 c3bd
00000150: cf5d f53d fbb1 19bd cee0 0abd 4c87 60b9
00000160: 6ed9 343e 7501 f0bc d67a 023e 1939 873b
00000170: f969 01bf 392a 8e3d 71f1 89bb d5b4 01bc
00000180: b6ac 113e 29c9 f2bd bef2 883e 0c1d f9bb
00000190: 0bfc 823d 1f6f 62bc 6476 963e d311 923d
000001a0: 88a5 fabd 83a9 09be 37e0 a93d 2a80 f83d
000001b0: 0ff8 4e3d c003 c5bd f1f7 85be 098d e4bd
000001c0: bac5 af3d 0ae9 ecbd 0d7f 82be 6748 51be
000001d0: bae2 f03d 817b 3f3e 3b17 97be c582 72be
000001e0: ab6a 01be 1422 073e 3558 e9bd 1b60 92bd
000001f0: 15ed 543e 2fee eabd e86e 89bc 4b99 003e
00000200: d203 c1bd b060 ed3d 3d27 cf3d 1d44 f23d
00000210: f670 aabc 5004 49be 74a7 253e 2e27 61be
00000220: 9f3e 883e 1c1b 4f3e 40b5 a03d fcdd 3bbe
00000230: 06e8 da3d 49c8 293e 7624 863d 28e6 c33d
00000240: a8a6 ae3c 95eb 083e b693 bb3d db5c 9d3d
00000250: 2f9f 033f cdce 4bbe 0273 3fbe ecb8 ed3d
00000260: 42f3 4ebe 4e0c 3e3e 3fa4 45be c205 e1bd
00000270: f287 423d 9242 8dbd 37fb 123d edee 1a3e
00000280: fe64 003e a93a 66bc a253 e6bd 1aab c8be
00000290: a1b5 56bd ca41 0bbc c26b 3abe 529a 4ebd
000002a0: 109d 893e 14a5 993c 5901 2fbd b3ae 123e
000002b0: 4cb2 9abd 29ac 66be b3ea cdbe 1640 17bd
000002c0: 298e 86be 20db 4cbd 6634 21bd 6128 87be
000002d0: cab1 1abe 990f 98bc b790 95be 6d74 96bb
000002e0: 5258 68bb e53a 8f3e 8147 ef3d 3832 2d3d
000002f0: 30fd 60be 1a30 063e 86c4 573d a12f c4be
00000300: 336c 733e fb96 eabd bbce 37be 9ff1 5dbd
00000310: 7cca f03e 026c 183e 922e 713e 7904 a03d
00000320: aca4 86be 5002 533e df63 143d 93fe 2d3e
00000330: 1e75 9fbc a87c 4dbe 1fdf 61be 3383 9ebe
00000340: c869 a53c aa52 9c3b b94c d8bc 3cda 32bd
00000350: 14b4 9f3d ba90 6bbd 53a6 afbd 53c2 20be
00000360: 21a8 ebbd 048c 0c3e 31c4 1cbd e195 6fbd
00000370: 6b61 6c3e b6c6 50be da16 9dbd a5ef 25bd
00000380: 738e 00bd 487e bb3e 605f a33d 0132 183e
00000390: 9a15 fc3d d161 a63e 39a0 87bd ac59 c53c
000003a0: 4ae6 c93d 5933 1bbe bac6 fb3d 51a9 8b3e
000003b0: 187b 673e 67fa 013e 6c78 16be 2717 783e
000003c0: 457e 9abe c9aa bb3d bbe2 c93d 9e20 a53d
000003d0: 72e1 2d3e f481 9a3e 8d7b 3ebe ed86 0e3e
000003e0: 05f6 77bd fbf3 f73d f8d8 d43e e19d 173e
000003f0: bef5 ae3d 6fec 3dbd a0a6 e43c 4787 b43d

critic.2.bias f4 [64]
0.0 0.0 0.0 0.0 0.0 0.0 0.0 0.0
0.0 0.0 0.0 0.0 0.0 0.0 0.0 0.0
0.0 0.0 0.0 0.0 0.0 0.0 0.0 0.0
0.0 0.0 0.0 0.0 0.0 0.0 0.0 0.0
0.0 0.0 0.0 0.0 0.0 0.0 0.0 0.0
0.0 0.0 0.0 0.0 0.0 0.0 0.0 0.0
0.0 0.0 0.0 0.0 0.0 0.0 0.0 0.0
0.0 0.0 0.0 0.0 0.0 0.0 0.0 0.0
00000000: 0000 0000 0000 0000 0000 0000 0000 0000
00000010: 0000 0000 0000 0000 0000 0000 0000 0000
00000020: 0000 0000 0000 0000 0000 0000 0000 0000
00000030: 0000 0000 0000 0000 0000 0000 0000 0000
00000040: 0000 0000 0000 0000 0000 0000 0000 0000
00000050: 0000 0000 0000 0000 0000 0000 0000 0000
00000060: 0000 0000 0000 0000 0000 0000 0000 0000
00000070: 0000 0000 0000 0000 0000 0000 0000 0000
00000080: 0000 0000 0000 0000 0000 0000 0000 0000
00000090: 0000 0000 0000 0000 0000 0000 0000 0000
000000a0: 0000 0000 0000 0000 0000 0000 0000 0000
000000b0: 0000 0000 0000 0000 0000 0000 0000 0000
000000c0: 0000 0000 0000 0000 0000 0000 0000 0000
000000d0: 0000 0000 0000 0000 0000 0000 0000 0000
000000e0: 0000 0000 0000 0000 0000 0000 0000 0000
000000f0: 0000 0000 0000 0000 0000 0000 0000 0000

critic.4.weight f4 [1, 64]
0.1452421 0.07700343 -0.056785326 0.103849165 0.14575526 -0.044101186 -0.13904732 0.26289174
0.009880025 -0.24251194 0.038279545 0.014728171 0.122168645 -0.08362015 0.058990642 0.19624062
-0.06510429 -0.018332167 -0.09893834 0.08445229 0.23414758 -0.13727878 -0.094165854 -0.027197324
0.009279409 0.10610937 0.008883562 -0.10703799 0.036992177 -0.10677141 0.072227724 -0.138896
0.10252138 -0.006052025 0.015508276 0.18088299 0.054201122 0.2527754 0.03658351 -0.055089414
-0.14273804 -0.094545886 -0.11872591 0.15349334 0.06516381 0.13119373 -0.13065821 -0.17122048
-0.03390546 -0.16445012 -0.22708823 -0.009268734 0.07359123 -0.041404992 -0.044594347 0.018872928
-0.020927137 0.2079988 -0.21818827 0.34693784 -0.085054114 0.0014887102 -0.010072712 0.0059914007
00000000: 58ba 143e f9b3 9d3d bb97 68bd dfae d43d
00000010: de40 153e 72a3 34bd 6c62 0ebe bf99 863e
00000020: d4df 213c 0d55 78be 03cb 1c3d 6d4e 713c
00000030: 8e33 fa3d 0b41 abbd 2ca0 713d 4df3 483e
00000040: 6655 85bd 572d 96bc 2fa0 cabd 52f5 ac3d
00000050: 62c4 6f3e cf92 0cbe 07da c0bd eccc debc
00000060: aa08 183c df4f d93d 5c8c 113c bc36 dbbd
00000070: 1c85 173d f8aa dabd 21ec 933d c13a 0ebe
00000080: bbf6 d13d 1150 c6bb 6d16 7e3c 6439 393e
00000090: ff01 5e3d c76b 813e 97d8 153d 70a5 61bd
000000a0: ec29 12be 46a1 c1bd 9226 f3bd 5c2d 1d3e
000000b0: 9b74 853d a657 063e 44cb 05be 6c54 2fbe
000000c0: 74e0 0abd 9d65 28be d189 68be e3db 17bc
000000d0: 00b7 963d 4898 29bd 90a8 36bd 669b 9a3c
000000e0: 636f abbc a3fd 543e bf6c 5fbe d6a1 b13e
000000f0: da30 aebd d320 c33a 0408 25bc 8353 c43b

actor_mean.0.weight f4 [64, 27]
0.23082463 0.16432573 -0.08582754 0.29205668 -0.20588885 -0.1424562 -0.1620918 -0.1927212
0.014446617 0.012429088 0.07102104 -0.0024627731 0.026258184 -0.34083724 -0.4168145 0.112967685
-0.07825421 -0.25880456 0.054638658 -0.034229297 0.069299236 -0.20824441 -0.06671631 -0.23612915
-0.009570973 -0.048781376 -0.11454611 0.30040583 0.031556033 0.110652685 -0.06358839 -0.0063298848
0.034830857 -0.24626844 0.0856173 0.02935156 0.12924752 -0.069029115 -0.3734899 -0.058095053
-0.21977927 0.030380486 0.01381403 0.3629197 0.18836579 0.30093417 0.046175897 0.0020684726
0.11008611 0.017734619 -0.14334622 -0.26430687 -0.10892248 -0.20453523 0.18855524 0.0065794634
-0.06325629 0.10466156 -0.026372924 0.0062993416 0.10683099 0.06492044 -0.06329166 -0.055836324
-0.2745454 -0.28926915 -0.22447112 -0.003429213 0.2234935 -0.22632927 -0.047224816 -0.12126924
-0.19092311 -0.22408843 -0.090396136 0.15230566 0.24101515 0.054286525 0.32428667 0.1288994
-0.08340418 -0.12185016 -0.13389613 -0.09464105 -0.21855769 0.074442804 0.12317547 0.14150335
-0.03836447 0.120657355 -0.049033 -0.021966916 0.114518404 -0.054367304 -0.15633291 0.08990546
0.11895747 -0.07917005 -0.08741784 -0.17836066 -0.07697305 0.13640046 -0.3073889 0.3212405
-0.081499115 0.00840561 -0.033504304 -0.12406558 -0.18106134 -0.03153766 -0.20502295 0.34877062
-0.1053867 0.12186517 -0.16016866 -0.24326533 -0.046038836 -0.35497576 -0.13910283 -0.049687356
-0.124923006 0.10276154 -0.18963458 0.07807439 -0.040209193 -0.026963638 0.16271082 0.0648988
0.09838672 -0.31611726 -0.23527095 0.13044187 0.18350428 0.09487455 0.026542025 0.17679577
0.0036878278 -0.051961523 0.08718033 0.2692062 0.046620708 -0.09968423 -0.19364972 -0.14793557
-0.2392709 0.057195254 0.12300359 -0.09454204 0.06483449 0.09323283 0.014445107 -0.21079414
-0.05563896 -0.30179587 0.028604351 0.10595136 0.065701365 -0.107496314 0.029203964 -0.3876187
-0.01886024 0.0083893435 -0.037881386 -0.3442575 -0.05936581 0.12347471 0.008421768 0.1656584
0.18534622 -0.040227894 -0.23034841 0.28805977 -0.30514818 -0.06532164 -0.13205594 -0.024788508
0.25750604 0.0264055 0.012436911 -0.23788814 0.12215634 -0.26131478 -0.093749285 -0.3347559
0.13403758 -0.0450689 -0.12603243 -0.32882068 0.0948022 0.13702911 -0.2846651 0.22894065
0.10144741 -0.13061337 -0.08978001 -0.014848209 -0.032420155 -0.058486734 -0.37201923 0.04921927
-0.041182816 -0.11915612 0.18949218 0.24519181 0.070136525 -0.11698101 -0.16379188 -0.3385921
-0.37563196 -0.12535146 -0.2878138 -0.10200956 0.011388281 0.006421553 0.037360337 -0.34772426
0.2871244 -0.105101824 -0.0049974998 0.33159143 -0.056337263 -0.12016692 -0.04349452 0.3343119
0.16529928 0.05712259 0.18957901 -0.07844151 0.18788052 -0.122634865 0.16504224 0.29861003
0.023149889 0.069781214 0.11555688 0.09323831 -0.15726657 0.2308069 0.37371522 0.40821305
0.1677028 0.02723473 -0.25136235 0.24331328 0.045788147 0.04507657 -0.0033489007 -0.09849299
-0.0833458 0.17013174 0.044518836 -0.10261056 -0.044733442 -0.13220938 -0.118678056 0.06014214
00000000: 4b5d 6c3e 0145 283e 59c6 afbd 7488 953e
00000010: 87d4 52be 0ae0 11be 65fb 25be b558 45be
00000020: 81b1 6c3c 60a3 4b3c 7b73 913d 7a66 21bb
00000030: 671b d73c 3882 aebe b668 d5be 9a5b e73d
00000040: be43 a0bd 0882 84be c9cc 5f3d 0534 0cbd
00000050: c2ec 8d3d 063e 55be 90a2 88bd d7cb 71be
00000060: 92cf 1cbc fbce 47bd 2797 eabd cbce 993e
00000070: e640 013d e09d e23d a13a 82bd ec6a cfbb
00000080: cdaa 0e3d cb2d 7cbe 1f58 af3d af72 f03c
00000090: 7659 043e 235f 8dbd 113a bfbe 14f5 6dbd
000000a0: d10d 61be 7fe0 f83c 3e54 623c 9cd0 b93e
000000b0: f6e2 403e 0b14 9a3e f022 3d3d 368f 073b
000000c0: d474 e13d 3148 913c 5ac9 12be 3b53 87be
000000d0: c012 dfbd af71 51be a014 413e 8a98 d73b
000000e0: 848c 81bd cd58 d63d 080c d8bc b56a ce3b
000000f0: 35ca da3d 02f5 843d 0f9f 81bd a1b4 64bd
00000100: 3791 8cbe 161b 94be c2db 65be a6bc 60bb
00000110: 7bdb 643e dcc2 67be cf6e 41bd 025c f8bd
00000120: 5981 43be 7077 65be 9c21 b9bd 04f6 1b3e
00000130: adcc 763e 8c5b 5e3d e708 a63e 34fe 033e
00000140: d0cf aabd 948c f9bd 111c 09be 2bd3 c1bd
00000150: 96cd 5fbe 7875 983d 6c43 fc3d 41e6 103e
00000160: 1024 1dbd 341b f73d d4d6 48bd f6f3 b3bc
00000170: a088 ea3d 40b0 5ebd bc15 20be 5b20 b83d
00000180: f99f f33d e823 a2bd 2008 b3bd 2da4 36be
00000190: 0ca4 9dbd 90ac 0b3e 1462 9dbe a379 a43e
000001a0: 02e9 a6bd afb7 093c cf3b 09bd 1816 febd
000001b0: 2568 39be a22d 01bd 89f1 51be 1092 b23e
000001c0: fbd4 d7bd 7294 f93d 4103 24be 8c1a 79be
000001d0: 3893 3cbd 62bf b5be f970 0ebe f884 4bbd
000001e0: a2d7 ffbd a474 d23d 912f 42be 77e5 9f3d
000001f0: 65b2 24bd d9e2 dcbc aa9d 263e a9e9 843d
00000200: fa7e c93d 1fda a1be deea 70be 8e92 053e
00000210: 8ce8 3b3e 974d c23d a96e d93c f309 353e
00000220: 7caf 713b 9bd5 54bd 9a8b b23d 65d5 893e
00000230: 5bf5 3e3d 3f27 ccbd 1d4c 46be 6c7c 17be
00000240: 6e03 75be 9245 6a3d 4ee9 fb3d 429f c1bd
00000250: f2c7 843d dbf0 be3d 2cab 6c3c 6bda 57be
00000260: aee5 63bd fd84 9abe ac53 ea3c 07fd d83d
00000270: 708e 863d 0727 dcbd 273d ef3c f575 c6be
00000280: ca80 9abc 7573 093c 8329 1bbd 8542 b0be
00000290: 9029 73bd 4fe0 fc3d 75fb 093c 5ba2 293e
000002a0: 66cb 3d3e 01c6 24bd 74e0 6bbe 927c 933e
000002b0: 623c 9cbe 5ac7 85bd ac39 07be 4511 cbbc
000002c0: d5d7 833e 5950 d83c 30c4 4b3c f398 73be
000002d0: 1a2d fa3d 0dcb 85be a0ff bfbd 2065 abbe
000002e0: 2641 093e 2b9a 38bd a50e 01be 2f5b a8be
000002f0: a827 c23d 5c51 0c3e a0bf 91be 6b6f 6a3e
00000300: a9c3 cf3d 83bf 05be 95de b7bd e745 73bc
00000310: ffca 04bd c98f 6fbd 4e79 bebe 259a 493d
00000320: 50af 28bd 2008 f4bd 3d0a 423e 9013 7b3e
00000330: bda3 8f3d bd93 efbd 0fb9 27be f25b adbe
00000340: d552 c0be 225c 00be 555c 93be 63ea d0bd
00000350: ea95 3a3c e46b d23b 2707 193d ea08 b2be
00000360: f801 933e a03f d7bd 11c2 a3bb 5ac6 a93e
00000370: e7c1 66bd 131a f6bd 4f27 32bd ee2a ab3e
00000380: 3744 293e 60f9 693d 0021 423e f1a5 a0bd
00000390: c063 403e fd27 fbbd d500 293e 6ae3 983e
000003a0: d6a4 bd3c 74e9 8e3d 16a9 ec3d baf3 be3d
000003b0: 7d0a 21be a558 6c3e 9a57 bf3e 4d01 d13e
000003c0: 48ba 2b3e 5e1b df3c 91b2 80be 1e27 793e
000003d0: 5a8c 3b3d 36a2 383d 3b79 5bbb b1b6 c9bd
000003e0: 34b1 aabd 0437 2e3e 6259 363d 7c25 d2bd
000003f0: 6a3a 37bd e561 07be 7b0d f3bd 9b57 763d

actor_mean.0.bias f4 [64]
0.0 0.0 0.0 0.0 0.0 0.0 0.0 0.0
0.0 0.0 0.0 0.0 0.0 0.0 0.0 0.0
0.0 0.0 0.0 0.0 0.0 0.0 0.0 0.0
0.0 0.0 0.0 0.0 0.0 0.0 0.0 0.0
0.0 0.0 0.0 0.0 0.0 0.0 0.0 0.0
0.0 0.0 0.0 0.0 0.0 0.0 0.0 0.0
0.0 0.0 0.0 0.0 0.0 0.0 0.0 0.0
0.0 0.0 0.0 0.0 0.0 0.0 0.0 0.0
00000000: 0000 0000 0000 0000 0000 0000 0000 0000
00000010: 0000 0000 0000 0000 0000 0000 0000 0000
00000020: 0000 0000 0000 0000 0000 0000 0000 0000
00000030: 0000 0000 0000 0000 0000 0000 0000 0000
00000040: 0000 0000 0000 0000 0000 0000 0000 0000
00000050: 0000 0000 0000 0000 0000 0000 0000 0000
00000060: 0000 0000 0000 0000 0000 0000 0000 0000
00000070: 0000 0000 0000 0000 0000 0000 0000 0000
00000080: 0000 0000 0000 0000 0000 0000 0000 0000
00000090: 0000 0000 0000 0000 0000 0000 0000 0000
000000a0: 0000 0000 0000 0000 0000 0000 0000 0000
000000b0: 0000 0000 0000 0000 0000 0000 0000 0000
000000c0: 0000 0000 0000 0000 0000 0000 0000 0000
000000d0: 0000 0000 0000 0000 0000 0000 0000 0000
000000e0: 0000 0000 0000 0000 0000 0000 0000 0000
000000f0: 0000 0000 0000 0000 0000 0000 0000 0000

actor_mean.2.weight f4 [64, 64]
0.07114759 0.0506429 0.21326372 -0.050786007 -0.08564634 -0.11107459 -0.2817965 0.41916364
-0.0069746077 0.03841287 -0.22373801 0.14812943 0.19117163 -0.30908608 0.018929329 -0.14653265
0.23889461 -0.06819131 -0.18962216 0.047241338 -0.39595658 -0.18479665 0.23409513 0.020736022
0.031940293 0.121784866 -0.2016994 0.15426198 0.078177035 0.05975728 0.21892813 -0.0756196
0.27199283 0.041261353 0.10791261 -0.21337919 0.18051569 -0.09948076 0.2585436 -0.11965531
-0.03280594 -0.19051097 -0.118117206 -0.034030467 -0.07485272 -0.21076189 0.26293623 -0.07896672
-0.22528072 0.33711118 0.11467732 -0.0273039 -0.04020262 0.29407728 -0.164221 0.015010015
0.2215024 0.19965364 0.12490274 0.20892182 -0.24766316 0.10514539 -0.03700623 0.04967619
0.02919875 0.4048621 0.17579457 -0.09666123 0.11585033 0.1276737 -0.105792865 0.2813006
0.16493618 -0.017958827 0.17523526 -0.21818492 0.1373858 -0.09631174 0.30193323 -0.09966266
-0.016154282 0.119657196 -0.1813642 0.18072395 0.074222535 0.083003245 -0.07661566 -0.2749435
-0.0033106664 -0.07727771 -0.100640126 -0.04117815 0.102645874 0.20755257 -0.013374475 0.0017323968
-0.18506497 0.15047504 -0.21139367 0.25490585 0.33234522 0.37554953 0.16566025 -0.2913881
-0.10808759 0.47858518 -0.05468811 0.013620639 -0.13480502 0.19387251 -0.24464133 -0.015271718
0.23242699 -0.024526918 -0.003521466 0.10217911 -0.21112786 0.19079597 -0.03879028 0.09306604
-0.0670112 -0.16506839 -0.062076837 -0.09096713 -0.29705712 0.08730513 0.015178039 0.089076236
-0.050554287 0.16558187 0.16183648 0.22871955 0.19537702 0.13997383 -0.08785993 -0.025612969
0.17595991 0.29205674 0.34483913 0.017303368 0.043869887 0.060304 0.16680592 0.19481458
-0.0824253 -0.06702308 -0.32818192 -0.17826633 -0.090220794 0.03412679 0.09585454 0.2604164
0.07586026 -0.31306934 -0.13521904 0.06538326 0.0068710577 -0.3030366 0.18854745 -0.2746221
0.039663367 0.07930751 -0.058912504 -0.08236282 -0.21193402 0.004673806 -0.23541594 -0.12570007
0.09406409 -0.08618324 -0.22631726 -0.32758126 0.030361068 -0.25323448 0.092569925 0.30402267
-0.11969351 -0.055248052 0.26788202 0.14695081 -0.1397925 -0.24506414 0.09559502 0.163183
-0.19369599 -0.16147016 0.23113775 -0.20049307 -0.14292511 0.15547886 0.10230717 -0.19701116
-0.09556643 0.009202023 -0.02785089 0.3121554 0.1759935 -0.027704611 -0.0121966945 0.22696349
0.21267672 -0.054924127 0.34873536 0.12112621 0.08161207 -0.13992813 0.30399826 0.13432491
-0.13759391 0.32797787 -0.35670614 -0.11572997 0.17212498 -0.34136623 -0.32094154 -0.31844345
0.18425015 -0.1917394 0.25371945 0.121384755 0.14992481 0.022260817 -0.02565873 0.090876296
0.31714702 -0.19131453 0.2837152 0.13137898 -0.01370247 -0.16213886 -0.10173778 -0.015166662
0.08888864 -0.19497094 0.050695255 0.38810727 0.13234782 -0.0687231 -0.010825644 -0.098146826
0.110793255 -0.04653586 -0.06873889 -0.1605371 0.08080281 -0.053989742 -0.088028826 -0.10084929
-0.015920121 0.2170314 -0.113041915 0.15477644 0.05320656 -0.036860418 -0.15478726 -0.029657453
00000000: d4b5 913d ee6e 4f3d ce61 5a3e fd04 50bd
00000010: 5967 afbd 137b e3bd a147 90be 9e9c d63e
00000020: 408b e4bb d056 1d3d 941b 65be 3eaf 173e
00000030: 7fc2 433e 8840 9ebe ae11 9b3c a80c 16be
00000040: caa0 743e e3a7 8bbd 502c 42be 2280 413d
00000050: d2ba cabe 553b 3dbe a2b6 6f3e 97de a93c
00000060: d3d3 023d 586a f93d 4a8a 4ebe daf6 1d3e
00000070: 481b a03d 0dc4 743d b22e 603e 73de 9abd
00000080: a542 8b3e aa01 293d 4901 dd3d 1380 5abe
00000090: 1bd9 383e 92bc cbbd d45f 843e d80d f5bd
000000a0: 855f 06bd 4f15 43be 6fe7 f1bd 8863 0bbd
000000b0: 624c 99bd f7d1 57be 949f 863e 4eb9 a1bd
000000c0: fdaf 66be d699 ac3e f1db ea3d 6eac dfbc
000000d0: 81ab 24bd 4c91 963e 8d29 28be 91ec 753c
000000e0: 86d1 623e 0172 4c3e 02cd ff3d 9aef 553e
000000f0: 699b 7dbe 7756 d73d d893 17bd 4379 4b3d
00000100: 3832 ef3c 164a cf3e 7e03 343e 53f6 c5bd
00000110: f042 ed3d e5bc 023e eea9 d8bd a206 903e
00000120: 08e5 283e 641e 93bc df70 333e de6b 5fbe
00000130: ddae 0c3e 173f c5bd fe96 9a3e f01b ccbd
00000140: fc55 84bc d50e f53d 89b7 39be b30f 393e
00000150: fc01 983d 9bfd a93d ace8 9cbd 65c5 8cbe
00000160: c4f7 58bb c743 9ebd 691c cebd 6baa 28bd
00000170: 0038 d23d a988 543e 9d20 5bbc 9711 e33a
00000180: ac81 3dbe 2116 1a3e 9577 58be 0583 823e
00000190: 2729 aa3e 0748 c03e d7a2 293e d230 95be
000001a0: 075d ddbd 1e09 f53e a400 60bd 1a29 5f3c
000001b0: 540a 0abe 8486 463e 4283 7abe 3a36 7abc
000001c0: 5701 6e3e adec c8bc 65c8 66bb 4843 d13d
000001d0: e731 58be 0560 433e 8fe2 1ebd 6899 be3d
000001e0: 2b3d 89bd b007 29be 4844 7ebd fa4c babd
000001f0: df17 98be 08cd b23d 4fad 783c 9a6d b63d
00000200: 0312 4fbd 4b8e 293e 76b8 253e 7535 6a3e
00000210: ea10 483e 4d55 0f3e e8ef b3bd 4ad2 d1bc
00000220: d62e 343e 7688 953e c18e b03e cbbf 8d3c
00000230: e9b0 333d 5401 773d 2ccf 2a3e 797d 473e
00000240: 98ce a8bd 6643 89bd 7607 a8be 738b 36be
00000250: aec5 b8bd 88c8 0b3d 634f c43d 4c55 853e
00000260: a05c 9b3d a04a a0be dc76 0abe a9e7 853d
00000270: 9c26 e13b 9d27 9bbe 9512 413e 459b 8cbe
00000280: 0e76 223d fa6b a23d 3d4e 71bd d7ad a8bd
00000290: 3b05 59be ba26 993b e010 71be 85b7 00be
000002a0: aca4 c03d d780 b0bd b6bf 67be bbb8 a7be
000002b0: c6b7 f83c f3a7 81be 4d95 bd3d dca8 9b3e
000002c0: df21 f5bd c84b 62bd d527 893e 467a 163e
000002d0: c425 0fbe 18f2 7abe 52c7 c33d 7219 273e
000002e0: 3e58 46be 6f58 25be 60af 6c3e 0e4e 4dbe
000002f0: f65a 12be da35 1f3e 6c86 d13d 4bbd 49be
00000300: 55b8 c3bd 15c4 163c 8d27 e4bc d5d2 9f3e
00000310: a437 343e c8f4 e2bc a5d4 47bc 1e69 683e
00000320: edc7 593e 1ff8 60bd 718d b23e 0511 f83d
00000330: 3b24 a73d 5249 0fbe a9a5 9b3e 788c 093e
00000340: 6be5 0cbe b7ec a73e 30a2 b6be d603 edbd
00000350: 8841 303e 8ec7 aebe 7352 a4be 050b a3be
00000360: 12ac 3c3e 5557 44be 84e7 813e 9298 f83d
00000370: e485 193e 515c b63c 4232 d2bc 5a1d ba3d
00000380: 1861 a23e f5e7 43be 1e43 913e 3688 063e
00000390: 5380 60bc bb07 26be e65b d0bd 977d 78bc
000003a0: 3f0b b63d 76a6 47be d4a5 4f3d ffb5 c63e
000003b0: 3086 073e b2be 8cbd 0b5e 31bc 3401 c9bd
000003c0: 93e7 e23d 639c 3ebd fac6 8cbd d663 24be
000003d0: f27b a53d 5924 5dbd 7548 b4bd 138a cebd
000003e0: ea6a 82bc 7b3d 5e3e 8582 e7bd b77d 1e3e
000003f0: 1fef 593d f3fa 16bd 8d80 1ebe 30f4 f2bc

actor_mean.2.bias f4 [64]
0.0 0.0 0.0 0.0 0.0 0.0 0.0 0.0
0.0 0.0 0.0 0.0 0.0 0.0 0.0 0.0
0.0 0.0 0.0 0.0 0.0 0.0 0.0 0.0
0.0 0.0 0.0 0.0 0.0 0.0 0.0 0.0
0.0 0.0 0.0 0.0 0.0 0.0 0.0 0.0
0.0 0.0 0.0 0.0 0.0 0.0 0.0 0.0
0.0 0.0 0.0 0.0 0.0 0.0 0.0 0.0
0.0 0.0 0.0 0.0 0.0 0.0 0.0 0.0
00000000: 0000 0000 0000 0000 0000 0000 0000 0000
00000010: 0000 0000 0000 0000 0000 0000 0000 0000
00000020: 0000 0000 0000 0000 0000 0000 0000 0000
00000030: 0000 0000 0000 0000 0000 0000 0000 0000
00000040: 0000 0000 0000 0000 0000 0000 0000 0000
00000050: 0000 0000 0000 0000 0000 0000 0000 0000
00000060: 0000 0000 0000 0000 0000 0000 0000 0000
00000070: 0000 0000 0000 0000 0000 0000 0000 0000
00000080: 0000 0000 0000 0000 0000 0000 0000 0000
00000090: 0000 0000 0000 0000 0000 0000 0000 0000
000000a0: 0000 0000 0000 0000 0000 0000 0000 0000
000000b0: 0000 0000 0000 0000 0000 0000 0000 0000
000000c0: 0000 0000 0000 0000 0000 0000 0000 0000
000000d0: 0000 0000 0000 0000 0000 0000 0000 0000
000000e0: 0000 0000 0000 0000 0000 0000 0000 0000
000000f0: 0000 0000 0000 0000 0000 0000 0000 0000

actor_mean.4.weight f4 [8, 64]
0.00027395246 0.0006745327 0.0010408604 0.0008576071 0.00042043976 0.00068965537 0.0012886764 0.0008353192
-0.00087414985 -0.0012076229 -0.0014742085 -0.00044391069 -0.00041663556 0.0012273375 -0.0020291714 5.365909e-05
0.0004798479 -3.567022e-05 0.00071392674 2.085468e-05 -0.0013383523 -0.00048709373 -7.095763e-05 -0.0008672915
0.00051648833 -0.0005747724 -0.0013138212 -0.0015218767 0.0004032048 -0.0013831289 -0.0032589089 -0.0010943575
-0.00032153647 0.0032125246 -0.0011936992 0.0007019943 0.000993777 0.0018150818 0.0018370202 0.00012267118
-0.0004036563 -0.0016977566 0.002580964 -0.00014831008 -0.0013698848 0.00010874475 -0.00043940375 -0.0032822792
0.0023468565 -0.0006880626 0.0015809142 0.0005498506 0.001072695 0.00019588882 -0.00025194997 0.00057955965
-0.00044754508 0.00013369543 0.00041847036 0.0016802547 -0.00041110907 -0.0007105863 -0.0018182495 0.0014220319
0.00035317364 -0.0018342398 -0.0017518527 0.001455836 -0.0020369529 -0.0013237295 0.0006863599 0.0005285334
0.00054457 0.0008269559 0.00034247866 0.0031480023 -0.00016471406 -0.0014760416 0.001984964 -0.00068404747
0.00028244258 0.0019266595 -0.000642264 3.7747872e-05 -4.0549457e-05 -0.0004719313 -0.0014448572 0.0015088397
0.0011664816 0.0011656501 -0.00043385456 -0.0019050131 0.0010385135 0.00090792595 -0.0005382405 -0.0011115193
0.00029901034 -0.00061912887 -0.0014354475 -0.0005194373 0.00026897498 5.069241e-05 0.0009836785 0.0010235035
-0.0020418286 5.8235044e-05 -0.00024023073 2.9663366e-05 -0.00039739755 0.00032188333 0.0014969329 -0.002092947
0.001246687 0.00037029872 -0.0005541159 -0.00010753325 -0.0007594066 0.0005757311 0.0028391362 -0.0008308957
0.00012833353 -0.0019844233 -0.0027958932 0.0004399736 0.0020985645 0.0019057272 -0.00063180004 0.00046247704
-0.0015004647 -0.0006807307 -0.002248861 0.0025281496 -0.00073450594 0.00064942415 0.00065006805 -0.0010809031
-0.0008324289 0.0016630164 0.0002421552 -0.0018363124 0.0017142561 -0.00036598614 -6.447019e-05 0.00012720337
-0.00021996324 -0.0010120975 -0.0012264454 0.0006179136 8.0250975e-05 -0.0027980555 0.00050053734 -0.0024238594
0.00037274676 0.0012179065 0.0005793824 -0.00036301417 0.0012285518 -0.0001380687 0.00083487225 0.0022286666
0.0016376763 -0.0012157626 -0.0009730677 0.0015619397 -4.7176774e-05 0.00087856053 -0.00015254757 -5.609923e-05
-0.0008796896 0.0023614462 -1.0407952e-05 -0.0009830121 -0.001428967 0.0022492977 -0.0014793865 0.00063955795
0.0025916856 0.0008879959 0.00032743186 -0.00082939904 -0.00064873 -0.00038508524 -0.002078274 5.8494014e-05
0.00039090065 0.00028556882 0.0008933897 0.001862147 -0.0005588347 0.0017620017 -0.00035210728 0.0007099036
0.0008960505 -0.0005774277 0.0010564739 0.0012970174 -0.0015144914 -0.002274326 -0.0005749695 -0.00029804336
-0.00091079925 -0.0014029975 0.0024237537 -1.1411713e-06 -0.0011135826 0.0019500453 0.00079871586 -0.00238436
0.0003088476 -0.0007139176 0.0017952161 0.0009389935 0.00048939645 -0.0010214692 -0.00053452916 -0.0008052934
-0.0018112432 -0.0010137956 0.0012325933 0.002227056 0.0011117883 0.00034409814 -0.0022026806 0.001694976
-6.888276e-05 0.0006334768 -0.0006894131 -0.0014726043 0.000727694 -0.0020529595 -0.0004593238 -0.0020821593
0.00053879333 0.0018155597 0.0006365374 0.001007256 -0.0007009434 -3.8759135e-05 -5.4211192e-05 -0.0003691517
-0.0005507811 -0.00012658648 0.0012933555 -0.0013949275 -0.0011658131 0.000497406 0.0019262491 0.0012322337
-0.001960088 -0.00040765124 0.00074917503 -0.000736173 -0.001142175 0.0017825665 -0.00015350671 0.0017258924
00000000: 47a1 8f39 20d3 303a 7b6d 883a 0ad1 603a
00000010: 786e dc39 fdc9 343a cee8 a83a 53f9 5a3a
00000020: 3427 65ba 1a49 9eba 3b3a c1ba afbc e8b9
00000030: e16f dab9 9dde a03a d9fb 04bb 0210 6138
00000040: 1894 fb39 9b9c 15b8 d026 3b3a 16f1 ae37
00000050: a76b afba 9d60 ffb9 16cf 94b8 f35a 63ba
00000060: f264 073a 53ac 16ba 8634 acba b579 c7ba
00000070: 3b65 d339 1b4a b5ba 6b93 55bb 8b70 8fba
00000080: e593 a8b9 3889 523b e675 9cba 0a06 383a
00000090: 9f41 823a 0ae8 ed3a 2bc8 f03a 4ba1 0039
000000a0: d5a1 d3b9 4287 deba 6425 293b af83 1bb9
000000b0: b58d b3ba e50d e438 c65f e6b9 821b 57bb
000000c0: b8cd 193b 195f 34ba ae36 cf3a d923 103a
000000d0: ac99 8c3a 8167 4d39 2718 84b9 97ed 173a
000000e0: 7ca4 eab9 9830 0c39 2466 db39 fe3b dc3a
000000f0: 208a d7b9 a446 3aba 5452 eeba 7963 ba3a
00000100: 2a2a b939 e06a f0ba 6c9e e5ba c0d1 be3a
00000110: 667e 05bb fe80 adba d5ec 333a 478d 0a3a
00000120: 79c1 0e3a 12c8 583a b58e b339 b74e 4e3b
00000130: 18b7 2cb9 bd77 c1ba 2b16 023b a651 33ba
00000140: cd14 9439 f787 fc3a 9c5d 28ba 7853 1e38
00000150: a613 2ab8 8c6d f7b9 5d61 bdba 42c4 c53a
00000160: a1e4 983a bac8 983a f976 e3b9 a2b1 f9ba
00000170: bb1e 883a e101 6e3a b518 0dba 66b0 91ba
00000180: 7dc4 9c39 094d 22ba a025 bcba d92a 08ba
00000190: 3605 8d39 909e 5438 c6ee 803a 1427 863a
000001a0: 33d0 05bb 6741 7438 72e6 7bb9 98d5 f837
000001b0: cc59 d0b9 73c2 a839 bc34 c43a d329 09bb
000001c0: e067 a33a a724 c239 1742 11ba 7983 e1b8
000001d0: ea12 47ba a9ec 163a cd10 3a3b 77d0 59ba
000001e0: 4591 0639 190d 02bb 4e3b 37bb 42ac e639
000001f0: 1288 093b 98c9 f93a 629f 25ba 9e78 f239
00000200: 3eab c4ba 1073 32ba a061 13bb 50af 253b
00000210: dc8b 40ba 1e3e 2a3a 5469 2a3a 17ad 8dba
00000220: 5c37 5aba 92f9 d93a 0beb 7d39 6bb0 f0ba
00000230: e4b0 e03a d4e1 bfb9 2b34 87b8 e561 0539
00000240: efa5 66b9 5ba8 84ba aec0 a0ba 7bfb 213a
00000250: 6a4c a838 955f 37bb 7e36 033a 9dd9 1ebb
00000260: 396d c339 29a2 9f3a b2e1 173a f052 beb9
00000270: 5c07 a13a 89c6 10b9 54db 5a3a d20e 123b
00000280: 4ca7 d63a 395a 9fba 7815 7fba 00ba cc3a
00000290: addf 45b8 334f 663a 2df5 1fb9 174c 6bb8
000002a0: f89a 66ba 7ec2 1a3b d09d 2eb7 6ad8 80ba
000002b0: 2d4c bbba f468 133b f9e7 c1ba 02a8 273a
000002c0: 45d9 293b 65c8 683a 29ab ab39 076c 59ba
000002d0: 890f 2aba 44e5 c9b9 a733 08bb 7857 7538
000002e0: ccf1 cc39 66b8 9539 5e32 6a3a 4913 f43a
000002f0: c37e 12ba f7f2 e63a 0a9b b8b9 d318 3a3a
00000300: eee4 6a3a 845e 17ba 6279 8a3a af00 aa3a
00000310: e681 c6ba dc0c 15bb 8db9 16ba b442 9cb9
00000320: b4c2 6eba c9e4 b7ba d7d7 1e3b 592a 99b5
00000330: a2f5 91ba aa98 ff3a ea60 513a ec42 1cbb
00000340: d3ec a139 3326 3bba 754d eb3a c926 763a
00000350: d74a 003a d2e2 85ba a51f 0cba 531a 53ba
00000360: 3d67 edba 56e1 84ba f88e a13a cdf3 113b
00000370: 6db9 913a 1268 b439 d95a 10bb f529 de3a
00000380: 2675 90b8 e90f 263a bbb9 34ba 6704 c1ba
00000390: b8c2 3e3a f28a 06bb 66d1 f0b9 d674 08bb
000003a0: cf3d 0d3a 13f8 ed3a 4ddd 263a e705 843a
000003b0: 84bf 37ba 4e91 22b8 d360 63b8 b48a c1b9
000003c0: 4b62 10ba 4dbc 04b9 cf85 a93a 00d6 b6ba
000003d0: 32ce 98ba 5a64 023a 327a fc3a e782 a13a
000003e0: d274 00bb 06ba d5b9 4964 443a bcfb 40ba
000003f0: 09b5 95ba 02a5 e93a a5f6 20b9 5737 e23a

actor_mean.4.bias f4 [8]
0.0 0.0 0.0 0.0 0.0 0.0 0.0 0.0
00000000: 0000 0000 0000 0000 0000 0000 0000 0000
00000010: 0000 0000 0000 0000 0000 0000 0000 0000
