models/Pendulum-v1__ppo__1__1767288212_final.pth (torch, 41709 bytes, 10 tensors)

critic.0.weight f4 [64, 3]
0	0xbe0aa831	-0.13540722
1	0x3e143cb7	0.14476286
2	0x3d31c180	0.043397427
3	0x3d94b1b7	0.07260459
4	0x3ed5a0cb	0.41724238
5	0x3daae805	0.083450355
6	0xbd66312c	-0.056199238
7	0xbe90110d	-0.2813801
8	0xbe079240	-0.13239384
9	0x3e855931	0.2604461
10	0xbe13591d	-0.14389463
11	0x3d6dbe6f	0.05804294
12	0xbdd357ce	-0.10319482
13	0x3eabb2a3	0.33534727
14	0xbd62403e	-0.055237047
15	0xbe8b5437	-0.27212688
16	0xbe6f2610	-0.23354363
17	0xbd8afdcd	-0.0678669
18	0x3dae8be5	0.085227765
19	0xbddc495f	-0.10756182
20	0xbcb350ca	-0.02188911
21	0xbd211edb	-0.039336067
22	0x3ddee86c	0.10884175
23	0x3e080457	0.13282906
24	0x3e1cb302	0.15302661
25	0xbea746e8	-0.32671285
26	0xbd7607d5	-0.060066063
27	0xbda13cd8	-0.07872933
28	0x3daefe39	0.08544583
29	0x3e1a9987	0.15097629
30	0x3d7055da	0.058675624
31	0xbdc47528	-0.09592658
32	0xbcdeb812	-0.027187381
33	0xbe2ddd65	-0.16978987
34	0x3d061b3d	0.03274082
35	0x3d0dfa94	0.034662798
36	0xbe8810a4	-0.26575196
37	0xbe406025	-0.18786676
38	0xbd9a10c3	-0.07522728
39	0xbd500b97	-0.050792303
40	0x3e24933c	0.1607179
41	0xbb80ffad	-0.003936729
42	0x3e43deab	0.1912791
43	0x3defe2c8	0.11713177
44	0x3d5c45de	0.053777568
45	0x3e70d4a3	0.23518614
46	0xbe04ba9b	-0.1296181
47	0x3c9d7090	0.019218713
48	0x3e2e32f9	0.17011632
49	0xbd1314c0	-0.03590846
50	0xb856fd2a	-5.1257353e-05
51	0x3e9fcc0a	0.31210357
52	0xbdfc28ae	-0.123124465
53	0x3d50dbe6	0.05099096
54	0x39b989f3	0.0003538873
55	0xbd8228a2	-0.06355406
56	0x3c64ac05	0.013957028
57	0x3dad8899	0.084733196
58	0xbd08ed78	-0.033429593
59	0xba3d4c8f	-0.0007221186
60	0x3e73c3e2	0.23805192
61	0xbec566d2	-0.38555008
62	0xbe6f717d	-0.23383136
63	0xbe09054c	-0.13380927
64	0x3d93651b	0.07197019
65	0xbd332156	-0.043732964
66	0x3cef1244	0.029183514
67	0xbd2b4f32	-0.041823573
68	0x3e1ea8f6	0.15494141
69	0x3d9ce1f5	0.076602854
70	0xbd62425d	-0.05523907
71	0xbda10778	-0.07862753
72	0x3e203851	0.15646483
73	0x3e37eca6	0.17961368
74	0xbe461dcd	-0.19347306
75	0xbe074428	-0.13209593
76	0xbe1eef8c	-0.15521067
77	0x3dcc0a11	0.099628575
78	0x3ba26599	0.004955959
79	0x3e6a03a9	0.22852959
80	0xbd5f2d3e	-0.054486506
81	0xbd796edd	-0.060896743
82	0xbdaddbab	-0.08489164
83	0x3c36eb28	0.011164464
84	0x3dc0908b	0.094025694
85	0xbc000849	-0.007814475
86	0xb9191409	-0.0001459868
87	0xbebb7b0a	-0.3661731
88	0x3d9577e7	0.0729826
89	0x3d9bb4a8	0.07602817
90	0x3e2abba6	0.16673145
91	0x3e621c96	0.22081217
92	0xbc802930	-0.01564464
93	0x3e6c856e	0.23097774
94	0xbcd9ecb6	-0.02660213
95	0xbed0e875	-0.4080235
96	0x3c8a7329	0.016900616
97	0x3e07c09b	0.13257067
98	0x3d3d70ec	0.04625027
99	0xbeac9159	-0.3370464
100	0xbe2cf246	-0.16889295
101	0xbe63cb37	-0.22245489
102	0x3e8ae439	0.27127245
103	0x3b935951	0.0044967313
104	0x3d75117b	0.059831124
105	0x3ca72339	0.020402538
106	0xbe97dd01	-0.296608
107	0x3deb362d	0.114849426
108	0xbeebe63d	-0.46074095
109	0xbc49986d	-0.012304408
110	0x3e3b5fbc	0.18298239
111	0x3e288cb3	0.16459922
112	0xbe1b4c94	-0.15165931
113	0x3db60212	0.08887114
114	0xbc88de58	-0.016707584
115	0xbe87472e	-0.26421493
116	0xbddbba48	-0.1072889
117	0x3e04b5f7	0.12960039
118	0x3e816f54	0.2528025
119	0xbe1850ed	-0.1487462
120	0x3e5b1dda	0.21398106
121	0xbd6d4582	-0.057927616
122	0xbd42a04b	-0.04751615
123	0xbdd5a845	-0.104324855
124	0x3dd6d03c	0.10488936
125	0x3d41d05a	0.04731784
126	0xbe2ed480	-0.1707325
127	0x3dffa952	0.12483467
128	0xbd3352a8	-0.04378
129	0xbd8b737d	-0.06809137
130	0x3e844e9b	0.2584122
131	0xbe6c3d3a	-0.23070231
132	0x3d8d2d04	0.06893352
133	0xbe525ace	-0.20542452
134	0x3e199498	0.1499809
135	0x3e1d0efc	0.15337747
136	0xbdac1179	-0.0840177
137	0x3eb3fb22	0.35152537
138	0x3c500f69	0.012698987
139	0x3a995b1a	0.0011700124
140	0xbd98716d	-0.07443509
141	0xbe4f216a	-0.2022759
142	0xbd855721	-0.06510759
143	0xbeb58f4f	-0.35460898
144	0x3dba1cc2	0.09087516
145	0xbe8d897e	-0.2764396
146	0xbe20ca29	-0.15702118
147	0x3d178062	0.03698767
148	0xbd2cc9d3	-0.042184662
149	0x3c3dbb9b	0.011580373
150	0xbd02d887	-0.031944778
151	0xbbfd3813	-0.007727632
152	0xbd9381c7	-0.072024874
153	0x3e467262	0.19379571
154	0x3e0326e0	0.12807798
155	0xbdaeead6	-0.08540885
156	0xbde97fb4	-0.114013106
157	0x3d5f463d	0.054510344
158	0xbd478e28	-0.048719555
159	0xbd84e972	-0.06489839
160	0xbdb67841	-0.08909655
161	0x3d2d4214	0.042299345
162	0xbd872e00	-0.06600571
163	0x3dc03f30	0.09387052
164	0xbca8b458	-0.020593807
165	0xbec52960	-0.3850813
166	0xbe4b22a9	-0.1983744
167	0x3d8f31b5	0.06991903
168	0xbca0757c	-0.01958727
169	0xbedf870f	-0.4365773
170	0x3dac62ba	0.08417268
171	0x3d9bb161	0.07602192
172	0x3c9d76ae	0.01922163
173	0x3d2810c1	0.041031603
174	0x3dc45619	0.09586734
175	0x3eca7812	0.3954473
176	0x3da5a4f4	0.08088103
177	0x3e6ab6c1	0.22921278
178	0x3e691d26	0.22765025
179	0xbba4a25a	-0.0050242366
180	0xbe52ec6f	-0.20598005
181	0xbd01aeca	-0.031660832
182	0x3d760682	0.0600648
183	0x3ddc58bd	0.10759113
184	0x3e0aadb9	0.13542832
185	0xbd01e37f	-0.031711098
186	0x39b00471	0.00033572645
187	0xbdaf478a	-0.08558567
188	0xbd07989c	-0.033104524
189	0xbe721681	-0.23641397
190	0x3ecdf64d	0.40226975
191	0xbeb4aeaf	-0.35289523

critic.0.bias f4 [64]
0	0xbe5c529a	-0.21515885
1	0x3e42c913	0.19022016
2	0xbe066470	-0.13124251
3	0xbe60ac23	-0.21940665
4	0x3e57fbd6	0.21092162
5	0xbe680855	-0.22659428
6	0x3e770c09	0.24125685
7	0x3dfe4de9	0.12417204
8	0xbe4e38e1	-0.20138885
9	0xbdff7836	-0.124741
10	0xbe550df7	-0.20806108
11	0xbe4b85ed	-0.19875307
12	0x3e2fd1f4	0.17169935
13	0xbe8474e5	-0.25870433
14	0xbe5bdf28	-0.21471846
15	0xbe625502	-0.2210274
16	0xbe6810db	-0.2266268
17	0x3e5466f0	0.20742393
18	0x3e81bb8b	0.25338396
19	0x3e83acc5	0.2571775
20	0xbd9ba99c	-0.0760071
21	0x3e446890	0.19180512
22	0xbe0300ab	-0.12793224
23	0xbe34c8f1	-0.17654778
24	0xbdeff35c	-0.11716339
25	0x3e31e498	0.17372358
26	0xbe539a65	-0.20664366
27	0xbe706562	-0.23476174
28	0x3e7fc987	0.2497922
29	0xbe656a54	-0.22403842
30	0x3e603866	0.21896514
31	0x3cff6c38	0.031179532
32	0x3e590179	0.21191968
33	0x3dc151e5	0.09439448
34	0xbe34d13c	-0.17657942
35	0xbe24780a	-0.16061416
36	0x3de36513	0.11103263
37	0x3e2aae29	0.16668
38	0x3e1d20b6	0.1534451
39	0x3e39345d	0.18086381
40	0xbe48090c	-0.19534701
41	0x3e3c82bb	0.18409245
42	0x3e3190f5	0.17340453
43	0x3db96bcf	0.09053766
44	0x3e5751ca	0.21027294
45	0xbd02b2a5	-0.03190865
46	0xbe25f828	-0.16207945
47	0xbb4ec1cf	-0.0031548624
48	0xbddeede2	-0.10885216
49	0xbe88ccf8	-0.2671888
50	0xbe35e7e9	-0.17764248
51	0xbe2a3903	-0.1662331
52	0xbe67233d	-0.22572036
53	0xbe3c7332	-0.18403319
54	0x3e6a4eaf	0.22881578
55	0x3e2867c3	0.16445832
56	0x3e4b34de	0.19844386
57	0xbe60402d	-0.21899481
58	0xbe4630eb	-0.19354598
59	0xbe636777	-0.22207437
60	0xbe4dfe45	-0.20116527
61	0xbe439ca4	-0.19102722
62	0x3e545829	0.20736755
63	0x3d89f5ee	0.067363605

critic.2.weight f4 [64, 64]
0	0x3df01729	0.117231674
1	0x3e9e7a2e	0.3095259
2	0xbe8a1b9b	-0.26974186
3	0xbe85cd5d	-0.26133242
4	0x3ed83721	0.4222956
5	0x3e1950d1	0.14972235
6	0x3e1387e7	0.14407311
7	0x3e4c8aba	0.19974795
8	0xbee037a2	-0.43792444
9	0xbdf1b59b	-0.118022166
10	0x3ebfaee9	0.37438133
11	0xbe504384	-0.20338255
12	0xbd802d98	-0.06258696
13	0x3c1d2a91	0.009592668
14	0x3dd0b531	0.101908095
15	0xbec84ce3	-0.3912116
16	0xbe36be4b	-0.17846029
17	0x3e26e813	0.16299467
18	0x3dbedcf2	0.09319486
19	0x3d674fd3	0.05647261
20	0xbe47c3a2	-0.19508222
21	0x3e84e7dd	0.25958148
22	0xbe1a3c9f	-0.15062188
23	0xbe06cd22	-0.1316419
24	0xbe8e5b91	-0.27804235
25	0xbe345ed6	-0.17614302
26	0xbbfd11f2	-0.0077230865
27	0xbebbfbd7	-0.36715576
28	0x3e8659ee	0.26240486
29	0xbe722690	-0.23647523
30	0xbbed7805	-0.0072469735
31	0xbda562d8	-0.080754936
32	0x3eb39314	0.3507315
33	0x3cbc0e1e	0.02295595
34	0xbe07dc1a	-0.13267556
35	0xbe057e1b	-0.13036387
36	0x3c686189	0.01418341
37	0xbcd8a1a7	-0.02644427
38	0x3e82ba80	0.25532913
39	0xbdd69fc7	-0.10479694
40	0xbe52d4b7	-0.20588957
41	0x3e98eee1	0.2986975
42	0x3da5a778	0.08088583
43	0x3b45697d	0.003012269
44	0xbe322f03	-0.17400746
45	0xbe7cee8a	-0.2470037
46	0xbe19f317	-0.15034138
47	0x3e45bcdd	0.19310327
48	0xbe8b15a1	-0.2716494
49	0xbe930796	-0.28716725
50	0xbe921146	-0.28528804
51	0x3e751e54	0.2393735
52	0xbd7a40ad	-0.061096836
53	0xbdc8111a	-0.09768887
54	0x3dc20a1d	0.09474585
55	0xbe75bcdf	-0.2399783
56	0x3ddef4c2	0.108865276
57	0xbdd9a121	-0.10626436
58	0x3d02aae6	0.031901263
59	0xbe7fe049	-0.24987902
60	0x3e23af2a	0.15984789
61	0xbf087358	-0.53301
62	0x3d3680b3	0.04455633
63	0x3e2c38dc	0.16818565
64	0x3e0b0469	0.13575901
65	0xbdff1746	-0.12455611
66	0x3e20ddbe	0.15709588
67	0x3ec5b205	0.3861238
68	0xbe4543cb	-0.19264142
69	0x3e533dab	0.20628993
70	0xbdccd51c	-0.10001585
71	0x3cf61ece	0.030043986
72	0xbde742de	-0.11292051
73	0x3c088429	0.008332291
74	0x3e5b6e27	0.21428739
75	0x3e18b198	0.14911497
76	0x3e593f9f	0.21215676
77	0x3e83d666	0.2574951
78	0x3e39ce40	0.18145084
79	0x3d6593f6	0.05604931
80	0xbc832e33	-0.01601324
81	0xbd5143e7	-0.051090147
82	0xbdf97f19	-0.12182445
83	0xbde4faee	-0.111806735
84	0xbe792a6d	-0.2433259
85	0xbe9823cc	-0.2971481
86	0x3df32ad7	0.118734054
87	0x3e57fa8a	0.21091667
88	0xbdfcdee2	-0.12347199
89	0xbf027829	-0.509646
90	0xbe47cbd4	-0.19511348
91	0x3bbf0eb9	0.0058306125
92	0xbe3a599f	-0.1819825
93	0xbd80aaa6	-0.062825486
94	0xbe0336fa	-0.1281394
95	0x3e7af69e	0.2450814
96	0xbcbfe74a	-0.023425717
97	0xbc85e0ba	-0.01634251
98	0xbd8b99ae	-0.068164214
99	0x3cfc2acf	0.030782131
100	0xbe94fb3d	-0.2909793
101	0xbe8dee77	-0.27720997
102	0x3c934485	0.017977009
103	0xbe484d7d	-0.1956081
104	0x3e6917a2	0.22762921
105	0xbf07531e	-0.528612
106	0xbe87f452	-0.2655359
107	0xbddf53c7	-0.10904651
108	0xbe897c6d	-0.26852742
109	0x3e77497f	0.2414913
110	0xbdb7e588	-0.089793265
111	0xbd111334	-0.035418704
112	0x3a404eda	0.00073359685
113	0x3e896d87	0.26841375
114	0x3e792d4f	0.2433369
115	0x3e645998	0.22299802
116	0xbd130edc	-0.035902843
117	0x3de18ba7	0.11012965
118	0xbdfb8c5e	-0.12282632
119	0x3e178ab2	0.14799002
120	0x3caf633f	0.021409629
121	0x3f196616	0.59921396
122	0x3ea10fbf	0.31457326
123	0x3d662e73	0.05619664
124	0xbcb2837c	-0.021791212
125	0x3f07d2c4	0.5305598
126	0xbda46ddd	-0.08028767
127	0xbd205e36	-0.039152347
128	0xbd4a3adb	-0.049372535
129	0x3dbf043e	0.09326981
130	0x3db8652e	0.090036735
131	0xbe2e0aeb	-0.16996352
132	0x3d6dd725	0.058066506
133	0x3d1ced30	0.038312137
134	0x3e39f2a5	0.18158968
135	0x3ead45a9	0.3384221
136	0x3ea6c121	0.3256922
137	0xbe36e983	-0.17862515
138	0x3c226fd5	0.009914358
139	0xbe38b61e	-0.18038222
140	0x3e9bf49b	0.30460057
141	0xbe834f82	-0.25646597
142	0xbe800fc1	-0.2501202
143	0xbe9d3457	-0.30703995
144	0xbe86e784	-0.26348507
145	0xbc7d6442	-0.015465798
146	0x3e6b36e7	0.22970162
147	0x3e21a42c	0.15785283
148	0xbe9614f9	-0.29312876
149	0x3e4a65b2	0.19765356
150	0x3c3d12ba	0.011540109
151	0x3e0a0eed	0.13482256
152	0x3cf5f066	0.030021857
153	0xbc17cc25	-0.00926498
154	0x3db4a4e3	0.08820512
155	0xbe922dbd	-0.2855052
156	0x3de89386	0.11356263
157	0xbe2a997b	-0.1666011
158	0x3a04fadf	0.0005072783
159	0xbe518ccb	-0.20463865
160	0x3d787c37	0.060665336
161	0x3cda5dfa	0.02665614
162	0xbe965b2d	-0.29366437
163	0x3eb266a5	0.34843937
164	0xbe5aabaf	-0.21354555
165	0x3ea68c90	0.32529116
166	0xbe73f592	-0.23824146
167	0x3e281df4	0.16417676
168	0xbc9197aa	-0.017772514
169	0xbda5e1d3	-0.08099713
170	0x3eba5d95	0.36399522
171	0x3e6b43a7	0.22975026
172	0x3de58dfd	0.11208723
173	0xbcdcb896	-0.026943486
174	0xbd8fd65e	-0.07023309
175	0xbecf48a5	-0.4048511
176	0xbd59a7c3	-0.053138506
177	0x3c42964e	0.011876656
178	0xbd7f37a1	-0.06230891
179	0xbe90c1de	-0.2827291
180	0xbbc03194	-0.005865285
181	0xbe6e71ea	-0.23285642
182	0x3d3583aa	0.044315018
183	0x3cb01d39	0.02149831
184	0x3dca706f	0.09884726
185	0x3d098484	0.033573642
186	0xbdf7a761	-0.12092472
187	0xbeaa25f6	-0.33232087
188	0x3c90e145	0.017685542
189	0xbef0a9d2	-0.47004563
190	0x3f00bfff	0.5029296
191	0x3e88ed53	0.26743564
192	0x3ec7c8f1	0.39020494
193	0x3e4f0061	0.20214988
194	0xbe8bde57	-0.2731807
195	0x3e4a074f	0.1972935
196	0xbe3f1509	-0.18660368
197	0xbecde095	-0.40210405
198	0xbd7757bd	-0.060386408
199	0xbe1ab0d2	-0.15106514
200	0xbdd4a1f0	-0.103824496
201	0xbe44d712	-0.19222668
202	0xbec0b64c	-0.3763908
203	0xbe0a8c8c	-0.13530177
204	0xbeecf31d	-0.4627923
205	0xbe253c1c	-0.16136211
206	0x3eb460a1	0.35229972
207	0x3ea780c5	0.3271543
208	0x3e5db6ce	0.21651766
209	0x3dacff3b	0.08447119
210	0x3cce94aa	0.025217373
211	0x3e1a14bc	0.15046972
212	0xbe8bfc37	-0.27340862
213	0xbe3de3a4	-0.1854387
214	0x3df539f5	0.11973945
215	0x3e191530	0.14949489
216	0x3dc9909c	0.09842035
217	0x3db078fa	0.086168244
218	0x3e47c157	0.19507347
219	0xbdca2f29	-0.09872276
220	0xbdd5f81a	-0.10447712
221	0xbe89dfe6	-0.26928633
222	0xbe85837f	-0.26076886
223	0x3e35a3de	0.17738292
224	0x3e8e513e	0.27796358
225	0xbec70b97	-0.3887603
226	0x3ed19dba	0.40940648
227	0x3d8aa2bc	0.0676932
228	0xbe1600be	-0.1464872
229	0x3ea7ae39	0.3275011
230	0x3e1e50f6	0.15460572
231	0x3df6894d	0.12037907
232	0x3e25af04	0.16180044
233	0xbdd4f0cc	-0.10397491
234	0xbe84ec70	-0.25961637
235	0xbe51ed23	-0.20500617
236	0xbd70cf16	-0.058791243
237	0x3eda89a5	0.4268314
238	0x3d05214d	0.03250246
239	0x3d89f9fb	0.06737133
240	0xbdd03642	-0.10166599
241	0x3e3a3118	0.1818279
242	0xbe33fe9d	-0.17577596
243	0x3df0d779	0.11759848
244	0xbdb93318	-0.090429485
245	0xbd8d2906	-0.0689259
246	0x3dec63fa	0.115425065
247	0xbe96dece	-0.2946686
248	0x3d9ea17c	0.077456445
249	0x3e7355da	0.23763219
250	0x3d367c95	0.044552404
251	0x3ea118a6	0.31464118
252	0x3ea6aac2	0.32552153
253	0x3e10c8e7	0.14139138
254	0xbd92e405	-0.071723975
255	0xbe56f5d7	-0.20992218

critic.2.bias f4 [64]
0	0x3e3d2620	0.18471575
1	0xbe434612	-0.19069698
2	0x3e44b217	0.19208561
3	0xbd46fc04	-0.048580185
4	0xbe47d3ca	-0.19514385
5	0xbe4a978c	-0.19784373
6	0x3e4dfe72	0.20116594
7	0xbe4f64b9	-0.20253266
8	0x3e64a7cc	0.22329634
9	0x3e46e82b	0.19424503
10	0xbe669b83	-0.2252026
11	0xbe31acc4	-0.17351061
12	0xbe3ebaf4	-0.18626004
13	0x3e581d16	0.21104845
14	0xbe2fa7b6	-0.1715382
15	0x3e45f20e	0.19330618
16	0xbe3e45ad	-0.18581267
17	0xbe31f3ee	-0.17378208
18	0x3e2da406	0.16957101
19	0x3d55886f	0.052132066
20	0x3e50742a	0.20356813
21	0x3e617b63	0.22019725
22	0xbe4e864c	-0.20168418
23	0x3e493cda	0.1965212
24	0x3e528e1b	0.20562021
25	0xbe4c1619	-0.19930305
26	0x3e49b311	0.19697215
27	0x3e3f980b	0.18710344
28	0xbe346bf3	-0.17619304
29	0x3e402cc2	0.18767074
30	0x3e4a36e0	0.19747496
31	0xbe62e1d0	-0.22156453
32	0x3e38ab78	0.1803416
33	0xbe3dadaa	-0.18523279
34	0xbe3cf63a	-0.18453303
35	0x3e45b0ec	0.19305772
36	0xbe3a6fb6	-0.18206677
37	0x3e3d2c7a	0.18473998
38	0x3e3cf90b	0.18454377
39	0xbe6def73	-0.23235874
40	0xbe2fc7eb	-0.17166106
41	0x3e3326a2	0.17495206
42	0xbe37498c	-0.1789915
43	0x3e51915c	0.20465606
44	0xbe27d722	-0.1639066
45	0xbe3d1711	-0.1846583
46	0x3e3e1628	0.1856314
47	0x3e5a39f6	0.21311173
48	0xbe3d3381	-0.18476678
49	0x3e380138	0.17969215
50	0x3e51471b	0.20437281
51	0x3e3ab04f	0.18231319
52	0x3e45ae06	0.19304666
53	0xbe5b4684	-0.21413618
54	0x3e6ba791	0.2301314
55	0xbe51aa99	-0.20475234
56	0x3e3ea4ee	0.18617603
57	0xbe4fb46b	-0.20283668
58	0x3e4a4bb8	0.19755447
59	0x3e45c6ac	0.19314069
60	0xbe3871fd	-0.18012233
61	0x3e571d97	0.21007381
62	0x3e631f2c	0.2217986
63	0x3e4f548f	0.202471

critic.4.weight f4 [1, 64]
0	0xbed3e096	-0.41382283
1	0x3eb2385d	0.34808627
2	0xbe996b2f	-0.29964587
3	0x3e1a58ba	0.15072909
4	0x3e795d09	0.24351896
5	0x3e9a24b2	0.3010612
6	0xbee5cffa	-0.44885236
7	0x3e6b9ffa	0.23010245
8	0xbe2e1ad5	-0.17002423
9	0xbe870556	-0.26371258
10	0x3e981a02	0.29707342
11	0x3dd1fe3c	0.102535695
12	0x3edd8a10	0.43269396
13	0xbe230cb8	-0.1592282
14	0x3ea7e4d4	0.3279177
15	0xbe5b165b	-0.21395247
16	0x3ecde991	0.4021726
17	0x3eec05d9	0.4609821
18	0xbe8c0337	-0.27346203
19	0xbe92b44f	-0.2865319
20	0xbe9e49df	-0.30915734
21	0xbe47fe96	-0.1953071
22	0x3e9f11aa	0.31068164
23	0xbe99b8c3	-0.30023775
24	0xbe1e4e51	-0.15459563
25	0x3e96b9fd	0.29438773
26	0xbe9792dd	-0.29604235
27	0xbeb7b565	-0.3588058
28	0x3e853154	0.26014197
29	0xbec45e1a	-0.38353044
30	0xbe837979	-0.25678614
31	0x3ec6c55f	0.38822457
32	0xbf009bd4	-0.50237775
33	0x3ea035dd	0.31291094
34	0x3ec1ff84	0.37890255
35	0xbe854129	-0.26026276
36	0x3ec0abd9	0.3763111
37	0xbeb8a139	-0.36060503
38	0xbe7acd19	-0.24492301
39	0x3e4b596d	0.19858332
40	0x3eb9fbb5	0.3632485
41	0xbed2dfbd	-0.41186324
42	0x3eb6342e	0.35586685
43	0xbe99e45f	-0.30057046
44	0x3f0973c5	0.53692275
45	0x3eac1674	0.3361088
46	0xbeb48dc9	-0.35264423
47	0xbe386881	-0.18008615
48	0x3e8860d3	0.2663637
49	0xbe908180	-0.282238
50	0xbe81e429	-0.25369385
51	0xbead493f	-0.33844945
52	0xbe64a3e7	-0.22328149
53	0x3e6d573c	0.23177809
54	0xbe3a03b5	-0.18165477
55	0x3e582fe1	0.21112014
56	0xbea42cd0	-0.3206544
57	0x3e63544d	0.22200127
58	0xbe544541	-0.20729543
59	0xbe8c54bd	-0.274084
60	0x3e7de059	0.24792613
61	0xbe9a514b	-0.30140147
62	0xbe3e8a1c	-0.18607372
63	0xbea63a80	-0.32466507

actor_mean.0.weight f4 [64, 3]
0	0x3d539607	0.05165675
1	0xbbe0f8e3	-0.006865607
2	0xbe8ff08a	-0.28113204
3	0x3e41613d	0.1888475
4	0xbe4af2f8	-0.19819248
5	0xbdbda017	-0.0925905
6	0xbe961eb1	-0.2932029
7	0xbe09c146	-0.13452634
8	0xbe046323	-0.12928443
9	0x3c8f1a65	0.01746864
10	0xbd06443d	-0.03277992
11	0xbca586b0	-0.020205826
12	0xbd82219f	-0.06354069
13	0x3edd4920	0.43219852
14	0x3e85a5f5	0.26103178
15	0x3d9f9dd8	0.07793778
16	0xbdd62015	-0.10455338
17	0xbdb683c3	-0.0891185
18	0x3e80afcc	0.25134122
19	0x3ddc8647	0.10767799
20	0xbdc0ad36	-0.09408037
21	0xbe972bb5	-0.29525533
22	0x3e38f611	0.18062617
23	0xbdbd7fd9	-0.09252901
24	0x3dafbdbd	0.085811116
25	0x3e42d411	0.1902621
26	0x3e248ae2	0.16068605
27	0x3cfd81ff	0.030945776
28	0x3e3b9291	0.1831763
29	0xbe86ea63	-0.26350698
30	0xbe149998	-0.14511716
31	0x3deef2e7	0.11667424
32	0xbd2398e1	-0.03994072
33	0xbd98a253	-0.07452836
34	0x3e243850	0.16037107
35	0x3e1e9eab	0.15490215
36	0xbe77edce	-0.24211809
37	0x3e92cc3f	0.28671452
38	0xbe8ea11b	-0.2785729
39	0x3da4fb5b	0.08055755
40	0x3e673529	0.22578873
41	0xbe9728ae	-0.29523224
42	0x3cb82467	0.022478295
43	0xbeb4bf3a	-0.35302144
44	0xbe478eb5	-0.19488032
45	0x3dcf3356	0.101172134
46	0x3e943764	0.2894851
47	0x3d703648	0.058645517
48	0xbe05c24f	-0.13062404
49	0x3e2468b3	0.16055565
50	0xbd850377	-0.064948015
51	0xbece0604	-0.40238965
52	0x3e004743	0.12527184
53	0x3e1cbbc6	0.15306005
54	0xbd8ca37b	-0.06867119
55	0xbe4ab3eb	-0.19795196
56	0x3d55e10b	0.05221657
57	0x3e3f5524	0.18684822
58	0x3cfbb91d	0.030727917
59	0xbe9daa53	-0.3079401
60	0x3dbc048f	0.09180557
61	0xbeaf08d9	-0.34186438
62	0x3ea60073	0.32422218
63	0x3d8f13f5	0.069862284
64	0xbe632551	-0.22182204
65	0x3deebf95	0.11657635
66	0xbe385f42	-0.18005088
67	0xbdd3e787	-0.10346895
68	0xbdc89942	-0.097948566
69	0xbe74b06a	-0.23895422
70	0xbe4c67e7	-0.1996151
71	0xbe45cd20	-0.1931653
72	0x3d49a2e4	0.04922761
73	0xbd23050f	-0.039799746
74	0xbd984db7	-0.07436698
75	0x3dd11842	0.10209705
76	0x3eaa9696	0.33318013
77	0x3ddfb1c6	0.109225795
78	0x3d9293b7	0.071570806
79	0xbecbcb2e	-0.3980345
80	0x3e825954	0.25458777
81	0xbcc5383a	-0.024074662
82	0xbe2e4e5a	-0.17022076
83	0x3f0a0d6f	0.5392675
84	0x3e2a76bd	0.16646858
85	0xbec2fa34	-0.38081515
86	0xbc5c4d0b	-0.013446103
87	0xbdd46ad9	-0.10371942
88	0x3c6e05ed	0.01452778
89	0x3db77f47	0.08959823
90	0xbed24327	-0.41066858
91	0xbe715be4	-0.2357021
92	0x3d9c458d	0.07630453
93	0xbd9f5153	-0.07779183
94	0x3e6b9736	0.23006901
95	0x3d7dd216	0.06196793
96	0xbe996b22	-0.29964548
97	0xbeb1fe08	-0.34764123
98	0x3e32141a	0.1739048
99	0x3e72b1d8	0.23700655
100	0xbc6ffc6f	-0.014647587
101	0xbd4f8876	-0.05066725
102	0xbe242d60	-0.16032934
103	0x3b35d6f1	0.0027746523
104	0xbdc82cfc	-0.09774205
105	0x3aead6b7	0.0017916773
106	0x3e9a554a	0.30143195
107	0xbb7ae91d	-0.003828592
108	0x3dbf2052	0.093323365
109	0xbecfaa14	-0.40559447
110	0x3e86cd90	0.26328707
111	0x3b2b71fe	0.0026160474
112	0xbc5220b6	-0.012825182
113	0x3e8117b6	0.25213403
114	0xbcb0f077	-0.021599038
115	0xbd927af0	-0.07152355
116	0xbc31a881	-0.010843397
117	0x3db6fe1a	0.08935185
118	0x3dbdbe44	0.09264806
119	0x3db47841	0.08811999
120	0x3e619d73	0.22032718
121	0x3e2b6f81	0.16741754
122	0xbe8d8522	-0.27640635
123	0x3ecfa168	0.4055283
124	0xbde7787b	-0.11302277
125	0xbdd4d79d	-0.103926875
126	0x3e40124e	0.18756983
127	0xbe183c42	-0.14866737
128	0xbdf87c90	-0.121331334
129	0x3ed2abd9	0.41146734
130	0x3eb4f24f	0.35341117
131	0x3e28b814	0.1647647
132	0x3e6ac6ba	0.2292737
133	0x3e403f16	0.18774065
134	0xbe5ad02a	-0.21368471
135	0x3e5af78f	0.21383499
136	0xbe5af040	-0.2138071
137	0x3ed0a5c1	0.4075146
138	0x3afa8f4b	0.0019116191
139	0x3ea03694	0.3129164
140	0xbce27841	-0.027645232
141	0x3e813b83	0.25240716
142	0xbe96dc40	-0.29464912
143	0xbe3c24e5	-0.18373449
144	0x3e0f2ccb	0.13981931
145	0xbe38d332	-0.18049315
146	0xbe119b1b	-0.14219324
147	0x3cc434ee	0.02395102
148	0x3ef00499	0.46878508
149	0x3e9303db	0.2871388
150	0xbe54540d	-0.20735188
151	0xbdaadecd	-0.08343277
152	0x3d8403a4	0.06446007
153	0x3dd57f2e	0.10424648
154	0x3ef76c99	0.4832504
155	0xbe454f62	-0.19268563
156	0x3e93002e	0.28711075
157	0xbd2e4cc4	-0.04255368
158	0xbdb991a9	-0.090609856
159	0x3de08083	0.10962012
160	0x3f00fab2	0.5038253
161	0x3e42aa81	0.19010355
162	0x3c9469af	0.0181168
163	0xbed40783	-0.4141198
164	0xbe468ca4	-0.19389588
165	0x3e872bd3	0.26400623
166	0xbeb3a056	-0.35083264
167	0x3eaeb138	0.34119582
168	0x3d88c188	0.06677538
169	0xbf09c526	-0.5381645
170	0xbe715e02	-0.23571017
171	0x3d2698b2	0.040672965
172	0xbf11e826	-0.56994855
173	0xbe228a2d	-0.15873022
174	0x3ea9754d	0.33097306
175	0x3e9e5d9d	0.30930796
176	0xbe6b0122	-0.22949651
177	0xbee861ea	-0.45387203
178	0xbd270231	-0.040773574
179	0x3e2ffded	0.17186709
180	0xbe0ba367	-0.13636552
181	0x3ec575ca	0.38566428
182	0xbe83c965	-0.2573959
183	0xbe2169b3	-0.15762977
184	0xbea2b8a2	-0.3178149
185	0xbe2c1d37	-0.1680802
186	0x3eb3544f	0.3502526
187	0x3e4d1171	0.20026185
188	0x3de94d87	0.1139174
189	0xbe30ea17	-0.17276798
190	0x3c2e5b56	0.010641893
191	0x3e029bbe	0.12754723

actor_mean.0.bias f4 [64]
0	0x3e354773	0.17703037
1	0xbd16d24f	-0.03682166
2	0x3e269e83	0.16271405
3	0x3e461180	0.19342613
4	0x3d373da2	0.044736512
5	0xbd301827	-0.042991783
6	0x3e244f07	0.16045772
7	0x3d8551ee	0.065097675
8	0xbd9e228c	-0.07721433
9	0x3d1c91ed	0.038225103
10	0x3c9f939b	0.019479563
11	0xbd6a7227	-0.05723777
12	0xbd65f947	-0.056145933
13	0x3db38c22	0.087669626
14	0xbd52d61c	-0.05147372
15	0xbda44f75	-0.08022968
16	0x3d92db29	0.07170708
17	0x3cdd365a	0.027003456
18	0xbd16c755	-0.03681119
19	0x3e123d5d	0.1428122
20	0xbc9f5c36	-0.01945315
21	0xbe256c08	-0.16154492
22	0x3d244f9b	0.04011498
23	0x3dbd0590	0.092295766
24	0xbd692551	-0.056920353
25	0x3d92390e	0.071397886
26	0xbbc4f867	-0.006011057
27	0xbdd127da	-0.10212679
28	0xbd156a29	-0.036478195
29	0xbe302dad	-0.17204924
30	0x3d8c5a16	0.0685312
31	0x3c8b9161	0.017037096
32	0xbe01fa2f	-0.12693094
33	0x3d8fb46a	0.07016833
34	0x3e17d733	0.14828186
35	0xbd84aa09	-0.06477744
36	0xba5d8a56	-0.00084510946
37	0xbd91bd47	-0.0711618
38	0x3e59c01f	0.21264695
39	0x3c364651	0.011125163
40	0x3e008ce1	0.12553741
41	0xbe009274	-0.12555867
42	0x3d681c65	0.056667704
43	0xbe34d1bd	-0.17658134
44	0x3e31f3d5	0.17378171
45	0x3ca2e67c	0.019885294
46	0x3d256d19	0.040387247
47	0xbd89288e	-0.06697188
48	0xbdc9e41f	-0.09857964
49	0x3d2cd06e	0.04219096
50	0xbd2ca421	-0.042148713
51	0x3d734602	0.059392937
52	0xbd5e9fef	-0.054351743
53	0xbd12d3fb	-0.03584669
54	0xbcf2cd27	-0.02963884
55	0x3d1fac5c	0.038982734
56	0xbd42889a	-0.047493555
57	0xbb38003d	-0.0028076314
58	0x3e0be67f	0.13662146
59	0x3ddfd009	0.109283514
60	0xbbfc52ab	-0.0077002845
61	0x3d36f48b	0.044666808
62	0xbe041dac	-0.12901944
63	0x3d40df96	0.04708823

actor_mean.2.weight f4 [64, 64]
0	0x3d46abc6	0.04850366
1	0xbd906ff0	-0.070526004
2	0xbe9a9224	-0.3018962
3	0x3d4d23af	0.05008286
4	0x3d850876	0.064957544
5	0xbe1115a3	-0.1416841
6	0xbd2963b2	-0.041354842
7	0x3defe0f6	0.1171283
8	0xbcfc4cea	-0.030798394
9	0x3e78f038	0.24310386
10	0xba7280b5	-0.0009250746
11	0x3e26e392	0.16297749
12	0x3e51fc23	0.20506339
13	0xbe357e7b	-0.1772403
14	0xbe91de94	-0.28490126
15	0x3eaab622	0.3334208
16	0xbe06d36a	-0.13166586
17	0xbe2dd7d4	-0.16976863
18	0x3cf5ecd7	0.03002016
19	0x3c642fed	0.013927442
20	0x3dc64b51	0.09682334
21	0x3e1eb280	0.1549778
22	0xbd78eadf	-0.060770866
23	0xbea73b45	-0.32662407
24	0x3ead32dc	0.33827865
25	0x3d1ae2fa	0.037814118
26	0xbe69d4a8	-0.22835028
27	0x3e5f92d4	0.21833354
28	0x3e811f75	0.25219312
29	0x3be00e7d	0.0068376646
30	0xbe157b25	-0.14597757
31	0x3e696544	0.22792536
32	0xbdf72344	-0.12067273
33	0xbdb13d87	-0.086543135
34	0xbd974c82	-0.073876396
35	0x3f28f377	0.659965
36	0xbd2198b6	-0.039452277
37	0xbe12ad61	-0.14323951
38	0xbddcafab	-0.107756935
39	0x3e340187	0.17578708
40	0xbe084eba	-0.13311282
41	0x3d9b3a7f	0.075795166
42	0xbe6813a0	-0.22663736
43	0x3db1d119	0.0868246
44	0xbd7685df	-0.060186263
45	0x3e0e1e5c	0.13878769
46	0xbca26866	-0.019825172
47	0x3b50d582	0.0031865542
48	0xbe2597fb	-0.16171257
49	0x3ea9fbe6	0.33199996
50	0x3e2a5720	0.16634798
51	0x3dd85d0c	0.10564622
52	0x3d37bd78	0.044858426
53	0x3ecf82cf	0.40529487
54	0xbec53378	-0.3851583
55	0x3e1ec4a9	0.15504707
56	0x3d1d787a	0.038444974
57	0xbf0f3aa8	-0.5594888
58	0x3ea064f6	0.31327027
59	0x3e99f404	0.30068982
60	0x3e47a491	0.19496371
61	0xbe2018eb	-0.15634505
62	0x3f08f0f5	0.5349267
63	0x3e29e38d	0.1659071
64	0xbdf132a1	-0.11777235
65	0x3d8045d4	0.06263319
66	0x3e4a591c	0.19760555
67	0xbe972d88	-0.29526925
68	0x3db1d54e	0.08683263
69	0x3debc6f1	0.115125544
70	0xbea6de0e	-0.3259129
71	0xbe3df367	-0.18549882
72	0x3d5d6163	0.054047953
73	0xbefd1fd0	-0.49438334
74	0x3dd053c7	0.10172229
75	0xbc01d152	-0.007923441
76	0xbbc45416	-0.005991469
77	0xbd850b30	-0.064962745
78	0x3e0eb8de	0.13937709
79	0xbd7c5f94	-0.061614588
80	0xbe4238e6	-0.18967018
81	0x3db3855c	0.08765671
82	0x3e436e98	0.19085157
83	0x3eb575aa	0.35441333
84	0xbdce281d	-0.10066245
85	0xbd673580	-0.056447506
86	0xbe2a93c2	-0.16657928
87	0x3bf36e3d	0.007428913
88	0xbdbbfc7f	-0.09179019
89	0xbe5a262f	-0.21303628
90	0x3cc9167b	0.024546852
91	0x3daa8ceb	0.08327659
92	0xbc82f9bb	-0.015988221
93	0xbe58953b	-0.21150677
94	0x3eaaa04c	0.33325422
95	0xbe236afd	-0.15958782
96	0x3ee160bd	0.44019118
97	0xbd988493	-0.074471615
98	0xbc1f9dcf	-0.009742214
99	0x3ec4b6c9	0.38420704
100	0x3e3dd8a4	0.18539673
101	0xbe0948a2	-0.13406613
102	0xbe3c7cd6	-0.18406996
103	0x3b87a664	0.0041397084
104	0xbce4c71a	-0.02792697
105	0x3ed38d6b	0.4131883
106	0x3c52dcf3	0.012870061
107	0xbd067496	-0.03282603
108	0xbe0c3616	-0.13692507
109	0x3e68314f	0.2267506
110	0x3e6b3cf5	0.22972472
111	0xbe88b861	-0.2670317
112	0x3c9493d7	0.018136902
113	0x3e04f021	0.12982227
114	0x3d367fc7	0.04455545
115	0x3c5f9987	0.013647444
116	0x3db9fd96	0.09081571
117	0xbdecc768	-0.11561471
118	0x3e09d482	0.13459972
119	0xbe742b97	-0.23844753
120	0xbd474ced	-0.048657347
121	0xbe4094ad	-0.18806715
122	0xbd7690ff	-0.060196873
123	0x3e3ce99e	0.18448493
124	0xbe8f08bf	-0.2793636
125	0x3e2a7532	0.16646269
126	0xbd31216f	-0.043244775
127	0x3e781d54	0.24229938
128	0xbe0e43a1	-0.13892986
129	0xbe91cd21	-0.28476813
130	0xbe425eff	-0.1898155
131	0x3e333fd1	0.17504813
132	0x3b0baee8	0.002131397
133	0xbe7465f5	-0.23867019
134	0xbe0a7fa3	-0.13525252
135	0xbe01ea8c	-0.12687129
136	0x3db4365b	0.0879943
137	0xbeba89ba	-0.36433202
138	0x3ec18b9b	0.37801823
139	0x3e5587aa	0.20852533
140	0xbdbc2947	-0.091875605
141	0xbd2ff012	-0.04295356
142	0x3db62e7f	0.08895587
143	0xbdbb552b	-0.09147104
144	0x3ea19c1b	0.31564412
145	0x3dc55bc6	0.09636645
146	0x3cb31d5e	0.02186459
147	0xbe227e91	-0.15868594
148	0x3ee3b41e	0.44473356
149	0xbccbcca8	-0.024877861
150	0xbcab5449	-0.020914214
151	0x3e1ee6cf	0.15517734
152	0xbdb446f8	-0.08802599
153	0xbe70195c	-0.23447174
154	0x3d3ea140	0.0465405
155	0xbc21d101	-0.009876491
156	0x3e68982f	0.22714303
157	0x3df82fa2	0.1211846
158	0x3e5ef036	0.2177132
159	0xbe55d396	-0.20881495
160	0x3de8411f	0.11340546
161	0xbe9370ed	-0.28797093
162	0xbeec5794	-0.46160567
163	0xbd156f7d	-0.036483277
164	0x3e9ffd24	0.31247818
165	0x3c8027b6	0.015643936
166	0x3e1c6563	0.15273051
167	0x3e63dc7d	0.22252078
168	0x3c4ad742	0.012380423
169	0xbda10195	-0.0786163
170	0xbd6ea730	-0.05826491
171	0xbceaae63	-0.028647607
172	0xbe38f8da	-0.1806368
173	0x3cc7d71c	0.024394564
174	0xbe6d40da	-0.2316927
175	0x3e87c7d7	0.26519653
176	0xbe015650	-0.12630582
177	0x3e2d123d	0.16901489
178	0x3d97b8e4	0.07408312
179	0xbe54ade7	-0.20769463
180	0x3d33ba6b	0.043878954
181	0x3db818c0	0.08989096
182	0x3e34fa25	0.17673548
183	0x3d6077b3	0.054801654
184	0x3d65fe11	0.0561505
185	0xbda0564d	-0.078289606
186	0xbe662c97	-0.22477947
187	0x3e2c1bbd	0.16807456
188	0xbe923428	-0.28555417
189	0x3ebdb3d9	0.37051275
190	0x3d8ae23e	0.067814335
191	0xbea49bc4	-0.3215009
192	0xbd324909	-0.043526683
193	0x3e0b9208	0.13629925
194	0xbdb3de30	-0.08782613
195	0xbe2a8da9	-0.16655602
196	0x3e27e759	0.16396846
197	0xbc6720be	-0.014106927
198	0xbdcc9c6d	-0.09990773
199	0xbdd89ae4	-0.10576418
200	0xbdd8a32c	-0.105779976
201	0xbdefb065	-0.117035665
202	0x3cffaf87	0.031211628
203	0xbc6bfa8a	-0.014402995
204	0x3c090a77	0.008364311
205	0xbd3939f0	-0.04522127
206	0x3dcfc934	0.10145798
207	0x3e09bf6c	0.13451928
208	0xbe7cfe7c	-0.24706453
209	0x3e1e15e2	0.15438035
210	0x3e793908	0.24338162
211	0xbe8a6936	-0.27033395
212	0x3d6af127	0.057358887
213	0xbdc65b37	-0.096853666
214	0x3d6a5cbb	0.05721734
215	0xbe67afb1	-0.22625615
216	0xbe532712	-0.20620373
217	0x3b7c948d	0.0038540692
218	0x3d577ab6	0.05260726
219	0x3e39816c	0.18115777
220	0x3ddf1c80	0.10894108
221	0xbe676346	-0.22596464
222	0xbd3e5f53	-0.046477627
223	0x3e853b56	0.26021832
224	0xbe1071e7	-0.1410595
225	0xbe4b9f01	-0.19884874
226	0x3dca06c4	0.09864572
227	0xbe80e63f	-0.25175664
228	0xbee29f16	-0.44261998
229	0xbe49b7d4	-0.19699031
230	0xbdeb68e1	-0.114946134
231	0xbd91f170	-0.07126129
232	0x3ea98d10	0.33115435
233	0xbdc5b565	-0.09653739
234	0x3e4a3cb3	0.19749717
235	0xbd641423	-0.055683266
236	0x3ed33c30	0.41256857
237	0xbdf5e804	-0.12007144
238	0xbdcb7dc6	-0.09936099
239	0x3dd15263	0.10220792
240	0x3dd53651	0.10410751
241	0x3de01a32	0.10942496
242	0xbcbed5fa	-0.023295391
243	0xbe7c811f	-0.24658631
244	0xbe8f540d	-0.27993813
245	0xbcd880f3	-0.026428675
246	0x3d12a708	0.035803825
247	0xbe296155	-0.16541035
248	0xbe94092b	-0.28913245
249	0xbeb6d6bf	-0.35710713
250	0x3dd27675	0.102765
251	0x3eb14828	0.34625363
252	0x3ea95335	0.33071294
253	0x3e3ae3a3	0.18250899
254	0x3e0aecfa	0.13566962
255	0xbe341b43	-0.17588525

actor_mean.2.bias f4 [64]
0	0xbd8e35ab	-0.0694383
1	0xbd9d42c0	-0.07678747
2	0xbdbe933b	-0.09305426
3	0x3c748420	0.014924079
4	0xbc625197	-0.013813398
5	0xbca33d38	-0.019926652
6	0x3bb6b152	0.0055753374
7	0xbdcbb7dc	-0.09947178
8	0xbd0916be	-0.033468954
9	0xbd084d34	-0.03327675
10	0x3db7bd4f	0.089716546
11	0x3c15778b	0.00912274
12	0x3bf9ceee	0.007623545
13	0x3e309ca4	0.17247254
14	0xbcd33d18	-0.025785968
15	0x3c3feabe	0.011713682
16	0xbc72aefb	-0.014812226
17	0x3cb5ceb8	0.022193298
18	0x3baec842	0.005333931
19	0x3d34d511	0.04414851
20	0xbce4b86f	-0.027919976
21	0x3d0d23b5	0.03445788
22	0xbd06774c	-0.032828614
23	0xbe785f5e	-0.2425513
24	0x3dc2b115	0.09506432
25	0xbdada817	-0.08479326
26	0x3dd13d44	0.102167636
27	0x3c2f30f7	0.0106928265
28	0xbb0cd444	-0.0021488825
29	0xbd93a189	-0.07208545
30	0xbdfd4bf6	-0.12368004
31	0xbdc20baf	-0.09474885
32	0x3cc65301	0.024209501
33	0xbcb0e8f5	-0.021595458
34	0xbd2692eb	-0.040667456
35	0x3e0fcabc	0.14042181
36	0xbd90d810	-0.07072461
37	0x3d0d2ad8	0.034464687
38	0xbd3c35ab	-0.04594962
39	0xbd624364	-0.05524005
40	0x3d4cb1c3	0.049974214
41	0xbd9e9fd8	-0.077453315
42	0x3c915700	0.01774168
43	0x3be96541	0.007122666
44	0x3d1bfdd1	0.038083855
45	0xbe0dd54d	-0.13850899
46	0xbd1d83e7	-0.03845587
47	0xbdcc1b24	-0.09966114
48	0x3d16dcc1	0.03683162
49	0x3c33d0f0	0.010975108
50	0xbde2065b	-0.110363685
51	0x3c21c72c	0.009874146
52	0xbcef42dd	-0.029206688
53	0xbcccedb4	-0.02501569
54	0xbd5da8df	-0.054116126
55	0x3d841a4d	0.06450329
56	0x3b32872d	0.0027241216
57	0xbb9b1678	-0.004732903
58	0x3c82f7bf	0.015987275
59	0x3ccf1b50	0.025281578
60	0x3ced41ab	0.028961977
61	0x3dcbc345	0.09949354
62	0x3cbb9bf8	0.02290152
63	0xbd69d3ef	-0.05708688

actor_mean.4.weight f4 [1, 64]
0	0xbde1f3f2	-0.11032857
1	0x3d471673	0.048605394
2	0x3d82052d	0.063486435
3	0xbdd531a5	-0.104098596
4	0xbd8eb145	-0.06967405
5	0x3d4fe556	0.05075582
6	0x3d32f497	0.04369029
7	0x3d4f6027	0.050628807
8	0xbdbb3417	-0.09140795
9	0xbda8c06f	-0.08239829
10	0xbda1e0dd	-0.079042174
11	0xbd2bff61	-0.041991595
12	0x3df3d364	0.11905554
13	0xbdb47b03	-0.08812525
14	0xbde09fd6	-0.10967986
15	0x3e095217	0.13410221
16	0xbd0c3651	-0.034231488
17	0x3cc5e110	0.02415517
18	0xbd5c27df	-0.05374896
19	0xbe165815	-0.14682038
20	0x3d9188fa	0.07106204
21	0x3d343172	0.043992467
22	0xbe203ced	-0.15648241
23	0x3dbd761c	0.09251043
24	0xbd871691	-0.06596101
25	0xbddb9b44	-0.10722974
26	0xbd65afad	-0.05607574
27	0xbe215dc8	-0.15758431
28	0xbd4c87b9	-0.049934123
29	0x3e20489b	0.15652697
30	0x3d79e636	0.061010562
31	0x3de04343	0.10950329
32	0xbd36770d	-0.04454713
33	0x3d1a783f	0.03771233
34	0xbd7bf96d	-0.061517168
35	0x3d688e12	0.056776114
36	0x3d630cc0	0.05543208
37	0xbd604bca	-0.054759778
38	0xbd8f12ed	-0.06986032
39	0xbd9e1b62	-0.077200666
40	0x3dc877b4	0.097884566
41	0x3d837e8d	0.06420622
42	0x3e25ce06	0.16191873
43	0x3dee5fa3	0.11639335
44	0xbdcbd41e	-0.099525675
45	0x3d811524	0.063028604
46	0xbd5d1935	-0.053979117
47	0xbde8389a	-0.11338921
48	0x3e16562c	0.1468131
49	0xbd96a455	-0.073555626
50	0x3d140643	0.036138784
51	0xbd5ac679	-0.053411935
52	0xbdc49f78	-0.09600729
53	0xbd576190	-0.052583277
54	0xbd9bf0e1	-0.076143034
55	0x3dbf2f30	0.09335172
56	0xbda2f66d	-0.07957158
57	0xbdf24e98	-0.11831397
58	0xbe131168	-0.14362109
59	0x3e387528	0.18013442
60	0x3d63c823	0.055610787
61	0x3ca80082	0.020508055
62	0xbdce2963	-0.10066488
63	0xbd05416e	-0.0325331
