models/Pendulum-v1__ppo__1__1767289103_final.pth (torch, 41709 bytes, 10 tensors)

critic.0.weight f4 [64, 3]
-0.09278947 0.13918994 0.020684622 0.010123574 0.41546917 0.043679923 0.0002763256 -0.26188517
-0.09971459 0.3167645 -0.099988684 0.05619625 -0.15792796 0.28839535 -0.058946133 -0.25964692
-0.41363955 -0.12560382 0.037975803 -0.10513561 -0.0058585666 -0.10136824 0.0906252 0.118512414
0.22229008 -0.3228159 -0.051850107 -0.041325282 0.07984249 0.13173969 0.11190765 -0.08891923
-0.016616222 -0.1240934 -0.004461413 0.022667758 -0.32497 -0.19584328 -0.07435241 -0.003632855
0.12414636 -0.014648951 0.2469656 0.13777684 0.049099445 0.28898975 -0.1091522 0.017588472
0.22672665 -0.015761852 0.0022761568 0.2598872 -0.12793885 0.052105896 -0.04992587 -0.05494718
0.016705595 0.032736972 -0.033192333 0.0019370604 0.34604993 -0.48054516 -0.31857505 -0.19087337
0.052395534 -0.040175483 0.10330184 0.025062457 0.1591233 0.14128925 -0.03388022 -0.069408745
0.2135821 0.14702399 -0.20518686 -0.19025785 -0.13992053 0.094411455 0.05379996 0.2297555
-0.05444917 -0.0129977 -0.054235455 0.015073395 0.04353769 -0.047930963 0.0008808048 -0.30983037
0.106784575 0.049804628 0.12114317 0.18595263 -0.027771642 0.32978725 -0.15892828 -0.54040796
-0.035982657 0.10741664 0.02615666 -0.41303262 -0.26737437 -0.29752374 0.32723343 0.008434813
0.054602567 0.06689862 -0.2748371 0.1100725 -0.5124626 0.06971891 0.23658185 0.12607847
-0.15689965 0.07786577 -0.07114898 -0.22832187 -0.078073576 0.072348475 0.20202382 -0.14971305
0.27349573 -0.08179917 -0.048092004 -0.15940447 0.10028198 0.03593945 -0.22387373 0.1037369
-0.039505597 -0.12293011 0.22109184 -0.23512125 0.00050126325 -0.1884028 0.119788855 0.25850034
0.08717519 0.46154574 0.0612346 0.0037706285 -0.060539518 -0.29828265 -0.1313681 -0.43513614
0.17242661 -0.299056 -0.16300802 0.08598074 -0.03317797 0.01150735 0.02491285 -0.020045571
-0.060669582 0.25201383 0.11361642 -0.079513825 -0.06320752 0.05688672 -0.04032057 -0.018042916
-0.09200166 0.037494842 -0.11873778 0.090294234 -0.019668717 -0.43661726 -0.15476781 0.07334523
-0.06394851 -0.40376276 0.08632772 0.13409856 0.01586576 0.032734394 0.15350915 0.3563973
0.051257376 0.28687564 0.18949987 -0.010180861 -0.16150293 -0.008036533 0.048041154 0.16056447
0.12494556 -0.029143257 -0.051487435 -0.08073829 -0.02143223 -0.33951637 0.20183817 -0.46367377
00000000: 6808 bebd cf87 0e3e cc72 a93c 59dd 253c
00000010: 60b8 d43e b8e9 323d cbdf 9039 d015 86be
00000020: 2a37 ccbd f52e a23e dec6 ccbd 0a2e 663d
00000030: deb7 21be 8ea8 933e 8071 71bd 71f0 84be
00000040: 90c8 d3be 4a9e 00be 848c 1b3d 5751 d7bd
00000050: 38f9 bfbb 279a cfbd b499 b93d a3b6 f23d
00000060: 03a0 633e 2048 a5be c760 54bd b344 29bd
00000070: 7684 a33d c5e6 063e d72f e53d 491b b6bd
00000080: be1e 88bc ae24 febd 0b31 92bb bcb1 b93c
00000090: 7862 a6be 248b 48be 1446 98bd 3115 6ebb
000000a0: 7240 fe3d 2702 70bc 8de4 7c3e 5f15 0d3e
000000b0: 801c 493d 77f6 933e 308b dfbd b315 903c
000000c0: 082b 683e 001f 81bc 932b 153b ef0f 853e
000000d0: 6702 03be fe6c 553d 127f 4cbd 4b10 61bd
000000e0: 2cda 883c 3417 063d aff4 07bd f6e4 fd3a
000000f0: 752d b13e 040a f6be 451c a3be 4f74 43be
00000100: b39c 563d 0c8f 24bd ea8f d33d c84f cd3c
00000110: 38f1 223e 21ae 103e fcc5 0abd 2c26 8ebd
00000120: 44b5 5a3e 758d 163e 811c 52be f4d2 42be
00000130: 5447 0fbe cb5a c13d 595d 5c3d 0745 6b3e
00000140: 1806 5fbd 4ef4 54bc ff25 5ebd 67f6 763c
00000150: 9454 323d 4253 44bd cfe5 663a 16a2 9ebe
00000160: dfb1 da3d f0ff 4b3d e919 f83d 5e6a 3e3e
00000170: 5b81 e3bc e0d9 a83e 18be 22be 2d58 0abf
00000180: 8d62 13bd 41fd db3d 7e46 d63c 0379 d3be
00000190: 4be5 88be 0855 98be 248b a73e 2b32 0a3c
000001a0: f1a6 5f3d 2502 893d 73b7 8cbe b16d e13d
000001b0: c030 03bf cac8 8e3d 8342 723e b71a 013e
000001c0: 4daa 20be 1778 9f3d 8eb6 91bd 35cd 69be
000001d0: 0ae5 9fbd 702b 943d 55df 4e3e 614e 19be
000001e0: a207 8c3e 5386 a7bd 1ffc 44bd ed3a 23be
000001f0: a460 cd3d 3f35 133d 283f 65be 0374 d43d
00000200: 9fd0 21bd c8c2 fbbd e665 623e a0c3 70be
00000210: 3567 033a aaec 40be dc53 f53d 285a 843e
00000220: e888 b23d b94f ec3e 22d1 7a3d a61c 773b
00000230: 49f8 77bd 81b8 98be 5c85 06be 2aca debe
00000240: 9a90 303e de1d 99be 93eb 26be ac16 b03d
00000250: a0e5 07bd 5389 3c3c 0916 cc3c 9c36 a4bc
00000260: ab80 78bd f507 813e baaf e83d 25d8 a2bd
00000270: f272 81bd 0d02 693d 2f27 25bd bdce 93bc
00000280: 5e6b bcbd 3194 193d cb2c f3bd 2fec b83d
00000290: 4a20 a1bc 4c8c dfbe 747b 1ebe 0636 963d
000002a0: 70f7 82bd feb9 cebe 96cc b03d 2251 093e
000002b0: e9f8 813c 8014 063d 8131 1d3e b579 b63e
000002c0: 41f3 513d 5de1 923e 410c 423e a0cd 26bc
000002d0: 0661 25be aaab 03bc cdc6 443d 036b 243e
000002e0: 75e3 ff3d d7bd eebc 7de4 52bd 1e5a a5bd
000002f0: a592 afbc 17d5 adbe aaae 4e3e a666 edbe

critic.0.bias f4 [64]
-0.24042664 0.18257289 -0.1303705 -0.24391109 0.22580762 -0.1276196 0.26055425 0.14144103
-0.1995211 -0.12908556 -0.22497658 -0.22446671 0.19141687 -0.27876 -0.23178573 -0.24551372
-0.24366458 0.21906595 0.26759008 0.26440856 -0.026650073 0.22053033 -0.12643738 -0.19312643
-0.13757269 0.19388942 -0.23072515 -0.25143877 0.2649072 -0.17709796 0.23910713 0.06362777
0.22711183 0.08466404 -0.2036334 -0.18401942 0.14769989 0.19237044 0.1637463 0.16676168
-0.21927743 0.20822296 0.19049747 0.10620079 0.19463742 0.017340459 -0.18970552 -0.039364863
-0.09892785 -0.27798873 -0.19510294 -0.19382541 -0.23620516 -0.20908473 0.24734262 0.20057714
0.21962512 -0.23802716 -0.19378053 -0.24347337 -0.22809322 -0.2148783 0.2270341 0.026179008
00000000: 6732 76be 63f4 3a3e d87f 05be d4c3 79be
00000010: 1d3a 673e b6ae 02be 5e67 853e ebd5 103e
00000020: 424f 4cbe 012f 04be 4360 66be 9ada 65be
00000030: c902 443e a1b9 8ebe 3d59 6dbe f367 7bbe
00000040: 3583 79be d352 603e 9101 893e 8f60 873e
00000050: 4151 dabc b4d2 613e cd78 01be efc2 45be
00000060: dbdf 0cbe f38a 463e 3743 6cbe 95bc 80be
00000070: eba1 873e 2b59 35be 80d8 743e 474f 823d
00000080: 0190 683e 5764 ad3d 4685 50be 966f 3cbe
00000090: a43e 173e c2fc 443e 1cad 273e 93c3 2a3e
000000a0: 438a 60be 6638 553e c511 433e cd7f d93d
000000b0: 084f 473e 940d 8e3c 2a42 42be 0d3d 21bd
000000c0: af9a cabd 8a54 8ebe 11c9 47be 2b7a 46be
000000d0: c4df 71be 4f1a 56be 6247 7d3e 1864 4d3e
000000e0: 68e5 603e 64bd 73be 676e 46be 1551 79be
000000f0: 4591 69be 0f09 5cbe a17b 683e 5c75 d63c

critic.2.weight f4 [64, 64]
0.11128219 0.23209912 -0.20324358 -0.40518522 0.42543554 0.23371235 0.1588634 0.21006368
-0.45787534 -0.12243553 0.3417403 -0.19052905 0.096524075 -0.016906153 -0.058065716 -0.57050747
-0.34857932 0.14751926 0.12238281 0.051609755 -0.22510068 0.3962892 -0.18536656 -0.18800794
-0.36893162 -0.062863514 -0.06391884 -0.3582764 0.25849527 -0.21716057 -0.053875074 -0.13978349
0.33976024 0.13308339 -0.27735004 -0.093003765 0.09449999 -0.02258805 0.3211956 -0.14735965
-0.36927062 0.37018096 0.20799124 -0.009178628 -0.14539607 -0.31675693 -0.17954564 0.27740392
-0.25677308 -0.3188278 -0.2935728 0.089521945 -0.059885703 -0.084806636 0.14558001 -0.10727969
0.18052872 -0.18598492 -0.06056892 -0.42418623 0.18014193 -0.64566725 0.08983744 0.20906624
0.1128654 -0.1002859 0.1356185 0.5518373 -0.2622935 0.14610368 -0.08907423 -0.0068553095
-0.023920354 -0.011818111 0.26408327 0.123053305 0.0888268 0.25482634 0.32936487 0.24899697
0.15736957 -0.016548889 -0.13290428 -0.09236528 -0.15814072 -0.43424457 0.1468508 0.27859914
-0.043491393 -0.6152721 -0.17606604 -0.0017846714 -0.16449507 -0.0997949 -0.09778679 0.3352113
-0.028288804 -0.10660518 0.0696981 0.044855047 -0.38175672 -0.25393713 -0.0028314246 -0.17290138
0.4006234 -0.62502337 -0.4194957 -0.1353507 -0.26662275 0.30578104 -0.066178255 -0.11032221
0.04668475 0.29634085 0.24672072 0.37130225 -0.05444857 0.103891216 -0.18401411 0.03732298
0.0003171561 0.66757536 0.3636858 0.2304832 -0.05096876 0.629641 -0.10041137 -0.10855522
-0.031019665 0.100356996 0.08433395 -0.33845806 0.14544383 0.074529015 0.17717609 0.3860621
0.23060298 -0.16296077 -0.056950234 -0.16581264 0.41395512 -0.25795665 -0.40464452 -0.49109304
-0.43781012 -0.043578103 0.24673627 0.15042567 -0.3816044 0.3341637 -0.021264836 0.060240574
-0.028166678 0.08556595 0.07796697 -0.29332143 0.108218975 -0.13596612 -0.008710747 -0.28910273
0.085707664 0.10111024 -0.42875683 0.30198783 -0.13025294 0.3039632 -0.22798184 0.16450152
-0.17835411 0.024436427 0.5164647 0.27741414 0.107933655 -0.084656045 -0.10294873 -0.34066108
-0.11061092 -0.029768238 -0.07861706 -0.4156972 0.0056703044 -0.2443616 0.11808659 0.115713395
0.100092135 -0.041198205 -0.15465721 -0.5153736 0.03497407 -0.5713512 0.52932364 0.34085292
0.46805894 0.43812212 -0.5024149 0.40777078 -0.095969416 -0.5356632 -0.13962983 -0.06018061
-0.26713523 -0.11642494 -0.38651037 -0.10766306 -0.90150964 -0.078117914 0.703226 0.4722716
0.4555128 0.06559974 -0.040716663 0.114952706 -0.38805524 -0.35984907 0.21573575 0.16270885
0.16351292 -0.07967228 0.3305397 -0.09163483 -0.14114898 -0.2477127 -0.19731769 0.1167992
0.34243247 -0.65733457 0.6674194 -0.012556285 -0.16748945 0.28973776 -0.026064387 0.16386595
0.21652001 -0.09134484 -0.41391012 -0.20262998 -0.12280843 0.5595942 0.048868574 -0.08147895
-0.25974387 0.2337008 -0.18482588 0.29677606 -0.07548167 -0.06368622 0.0686657 -0.4477297
-0.10186093 0.38707715 0.30686623 0.67257494 0.3384067 0.36747572 -0.18852828 -0.2856832
00000000: ebe7 e33d 64ab 6d3e 161f 50be 7074 cfbe
00000010: b0d2 d93e 4a52 6f3e 16ad 223e ef1a 573e
00000020: a36e eabe 7bbf fabd 96f8 ae3e 0c1a 43be
00000030: 6aae c53d c67e 8abc 51d6 6dbd c70c 12bf
00000040: fd78 b2be 4a0f 173e d7a3 fa3d c064 533d
00000050: cb80 66be 6be6 ca3e bbd0 3dbe 2785 40be
00000060: 9be4 bcbe 96be 80bd e1e7 82bd 0170 b7be
00000070: 7e59 843e 575f 5ebe 1cac 5cbd 6723 0fbe
00000080: 0ef5 ad3e 0347 083e d300 8ebe c278 bebd
00000090: 3689 c13d 930a b9bc c073 a43e 73e5 16be
000000a0: 0a11 bdbe 5c88 bd3e a8fb 543e f561 16bc
000000b0: b5e2 14be f72d a2be d0da 37be e307 8e3e
000000c0: c377 83be 663d a3be 2d4f 96be 4857 b73d
000000d0: b64a 75bd 1aaf adbd ed12 153e 74b5 dbbd
000000e0: 85dc 383e d572 3ebe 1e17 78bd f02e d9be
000000f0: 2077 383e 734a 25bf b1fc b73d 7615 563e
00000100: fa25 e73d b262 cdbd 93df 0a3e 3645 0d3f
00000110: 554b 86be 349c 153e 8d6c b6bd 81a2 e0bb
00000120: 9ef4 c3bc c0a0 41bc ec35 873e 5f03 fc3d
00000130: d3ea b53d 9978 823e 83a2 a83e 10f9 7e3e
00000140: 7d25 213e 8991 87bc 0f18 08be 022a bdbd
00000150: a4ef 21be 4e55 debe 0e60 163e 8ca4 8e3e
00000160: 0824 32bd 7982 1dbf a84a 34be a3eb e9ba
00000170: 6571 28be 4561 ccbd 7144 c8bd d1a0 ab3e
00000180: ecbd e7bc d153 dabd e1bd 8e3d edb9 373d
00000190: 9e75 c3be 0c04 82be 6c8f 39bb 0f0d 31be
000001a0: 831e cd3e 8801 20bf 24c8 d6be 6099 0abe
000001b0: c782 88be 558f 9c3e 7788 87bd 9cf0 e1bd
000001c0: 8238 3f3d fdb9 973e 5ba4 7c3e 541b be3e
000001d0: 7705 5fbd ebc4 d43d 326e 3cbe fbdf 183d
000001e0: f947 a639 38e6 2a3f 0635 ba3e ca03 6c3e
000001f0: 9ec4 50bd 2730 213f 7aa4 cdbd 3352 debd
00000200: f41c febc f887 cd3d 47b7 ac3d 604a adbe
00000210: 3aef 143e aba2 983d a66d 353e eea9 c53e
00000220: 3023 6c3e 30df 26be a644 69bd caca 29be
00000230: edf1 d33e e512 84be 912d cfbe 8c70 fbbe
00000240: a628 e0be f47e 32bd 6fa8 7c3e 3009 1a3e
00000250: a761 c3be 8117 ab3e 9833 aebc d2be 763d
00000260: cebd e6bc 333d af3d 26ad 9f3d 3a2e 96be
00000270: e9a1 dd3d b43a 0bbe 85b7 0ebc 4605 94be
00000280: 8087 af3d e312 cf3d 0486 dbbe 269e 9a3e
00000290: 0761 05be 11a1 9b3e 1274 69be 1673 283e
000002a0: 76a2 36be e72e c83c 0837 043f 3a09 8e3e
000002b0: 520c dd3d 2660 adbd c9d6 d2bd 216b aebe
000002c0: fa87 e2bd 85dc f3bc fb01 a1bd 43d6 d4be
000002d0: f6cd b93b ed39 7abe 62d7 f13d 25fb ec3d
000002e0: 1bfd cc3d 73bf 28bd 765e 1ebe 86ef 03bf
000002f0: f840 0f3d 1244 12bf c181 073f 4684 ae3e
00000300: 6ca5 ef3e 8b51 e03e 439e 00bf 55c7 d03e
00000310: 9d8b c4bd 3921 09bf 1ffb 0ebe f17f 76bd
00000320: f3c5 88be 3370 eebd b0e4 c5be 737e dcbd
00000330: 56c9 66bf 49fc 9fbd 9e06 343f 95cd f13e
00000340: f938 e93e 2859 863d 84c6 26bd 536c eb3d
00000350: 2daf c6be 233e b8be d5e9 5c3e 269d 263e
00000360: ee6f 273e 382b a3bd 803c a93e 0bab bbbd
00000370: 5c89 10be 66a8 7dbe a60d 4abe 6b34 ef3d
00000380: 4f53 af3e 1447 28bf ffdb 2a3f e0b8 4dbc
00000390: 5b82 2bbe 8258 943e fb84 d5bc 7acc 273e
000003a0: 6cb7 5d3e 0113 bbbd 07ec d3be 3c7e 4fbe
000003b0: fc82 fbbd 9141 0f3f 6a2a 483d 70de a6bd
000003c0: 26fd 84be 434f 6f3e ff42 3dbe 08f3 973e
000003d0: 2296 9abd ec6d 82bd 9aa0 8c3d d43c e5be
000003e0: 779c d0bd fa2e c63e 921d 9d3e df2d 2c3f
000003f0: a543 ad3e c725 bc3e 8f0d 41be 1245 92be

critic.2.bias f4 [64]
0.1966233 -0.1920412 0.20840484 -0.09690558 -0.21038584 -0.20479111 0.21499535 -0.22579888
0.25202975 0.21598418 -0.234442 -0.22296523 -0.23581678 0.2264038 -0.20579481 0.19935977
-0.18427446 -0.16991444 0.21269655 0.09606084 0.2281532 0.2449023 -0.23347484 0.23180723
0.22801574 -0.21014193 0.21422605 0.19408149 -0.21322232 0.19619648 0.21612197 -0.22013457
0.15325291 -0.21211858 -0.207448 0.25564522 -0.19757357 0.20082766 0.1942807 -0.23802066
-0.19282702 0.19677742 -0.20670894 0.19107239 -0.18458058 -0.20458277 0.20457065 0.27070132
-0.21660315 0.21231726 0.2658312 0.20045036 0.22532915 -0.21869323 0.3036308 -0.2317987
0.19340326 -0.21733285 0.2269685 0.2083789 -0.20159464 0.2629449 0.26935366 0.19310014
00000000: 9e57 493e 73a6 44be 1468 553e 6f76 c6bd
00000010: 636f 57be c3b4 51be be27 5c3e d237 67be
00000020: 0b0a 813e f52a 5d3e 9011 70be ff50 64be
00000030: f479 71be 66d6 673e e0bb 52be f824 4c3e
00000040: 72b2 3cbe 0dfe 2dbe 20cd 593e 8cbb c43d
00000050: fea0 693e abc7 7a3e 0714 6fbe e05e 6d3e
00000060: f57c 693e 722f 57be 135e 5b3e 4cbd 463e
00000070: f456 5abe bbe7 483e 144f 5d3e f56a 61be
00000080: 55ee 1c3e 9d35 59be 406d 54be eee3 823e
00000090: ba50 4abe c4a5 4d3e 85f1 463e b0bb 73be
000000a0: 7274 45be 0580 493e 82ab 53be 7ba8 433e
000000b0: b102 3dbe 257e 51be f87a 513e 5d99 8a3e
000000c0: 37cd 5dbe b269 593e 071b 883e dc42 4d3e
000000d0: afbc 663e 1ef1 5fbe 7f75 9b3e a35c 6dbe
000000e0: 810b 463e 818c 5ebe 6e6a 683e 4761 553e
000000f0: d36e 4ebe b7a0 863e b9e8 893e 0bbc 453e

critic.4.weight f4 [1, 64]
-0.571986 0.4886746 -0.44592965 0.32966983 0.39596808 0.45018923 -0.5651454 0.3680386
-0.2961005 -0.40073943 0.41611812 0.24843083 0.569403 -0.29638824 0.49813175 -0.35948983
0.5316333 0.61121845 -0.48065725 -0.47824788 -0.43175524 -0.32546416 0.47208068 -0.43951547
-0.29185092 0.42527387 -0.42410585 -0.5060795 0.45409048 -0.5312036 -0.39480036 0.5141069
-0.6273296 0.4552151 0.5294181 -0.38063872 0.52206373 -0.5186598 -0.40570137 0.34227648
0.5250908 -0.5869702 0.52153194 -0.4256519 0.7024332 0.4794864 -0.49512935 -0.30753896
0.43856916 -0.46306884 -0.37768477 -0.46062845 -0.40311375 0.36679825 -0.3027298 0.35410267
-0.47314078 0.36719865 -0.34348482 -0.423981 0.40930313 -0.42590147 -0.33051476 -0.44708028
00000000: ad6d 12bf 8f33 fa3e e450 e4be 7cca a83e
00000010: 54bc ca3e 347f e63e 5ead 10bf 8e6f bc3e
00000020: 7c9a 97be b82d cdbe 6f0d d53e a764 7e3e
00000030: 65c4 113f 33c0 97be 200b ff3e 0d0f b8be
00000040: 1f19 083f d078 1c3f b518 f6be e8dc f4be
00000050: 060f ddbe 3da3 a6be 8fb4 f13e 2c08 e1be
00000060: 7c6d 95be 7fbd d93e 6724 d9be 6d8e 01bf
00000070: 8c7e e83e f6fc 07bf 4623 cabe 839c 033f
00000080: ac98 20bf f411 e93e f287 073f 14e3 c2be
00000090: f8a5 053f e3c6 04bf 17b8 cfbe dd3e af3e
000000a0: 5a6c 063f ae43 16bf 1e83 053f 0cef d9be
000000b0: aad2 333f 3e7f f53e 9881 fdbe bf75 9dbe
000000c0: 238c e03e 5c17 edbe e65f c1be 7ed7 ebbe
000000d0: ed64 cebe fbcc bb3e 66ff 9abe f24c b53e
000000e0: 823f f2be 7601 bc3e 3edd afbe 0a14 d9be
000000f0: 2e90 d13e c20f dabe 3b39 a9be b5e7 e4be

actor_mean.0.weight f4 [64, 3]
-0.08997325 0.0995957 -0.31937888 0.22645317 -0.260911 -0.10282543 -0.3468737 -0.11685228
-0.12128541 -0.0023241488 0.08928591 -0.0132968575 0.0674278 0.34861276 0.40668547 0.023831712
-0.1340377 -0.08509591 0.30441457 -0.024513286 -0.08902886 -0.4005708 0.16413838 -0.07282469
0.24236509 0.18487921 0.14201428 -0.021520535 0.27123046 -0.23958486 -0.31150663 0.05956821
0.003067335 0.23167567 0.030481976 0.11045017 -0.42622268 0.037209384 -0.14810188 0.017361157
0.27454233 -0.29010317 0.027017545 -0.40174836 -0.21769571 0.33686695 0.3036205 0.001014438
-0.21608694 0.1169669 -0.042401176 -0.39044216 -0.17732807 0.27158758 0.13891435 -0.16333233
0.026771331 0.14802471 0.10536161 -0.2826093 0.13461374 -0.39414933 0.27313855 0.02482577
-0.19383742 0.023963243 -0.22592358 -0.06085207 -0.088955924 -0.3791456 -0.15523681 -0.15974328
-0.012948893 -0.027511518 -0.054136302 0.2123546 0.43426275 0.05767718 0.102188125 -0.41708583
0.25278765 0.044393186 -0.26972482 0.40205508 0.34831926 -0.3982058 -0.037956096 -0.013268824
0.012142977 0.06780508 -0.41094935 -0.14791563 0.04495827 -0.2129574 0.15126143 0.04615723
-0.32712707 -0.38984904 0.23716533 0.25289595 -0.08136069 -0.025517335 -0.24940687 -0.0044717765
-0.07655724 -0.20327254 0.33491904 0.047681898 0.106677994 -0.43937185 0.26306504 0.18688628
-0.21011156 0.24713142 0.150231 -0.19721408 -0.02554707 0.15298519 0.10940127 0.061924152
0.21107437 0.25156933 -0.25647303 0.42305598 -0.15724064 -0.1055097 0.17734134 0.066755526
-0.17613818 0.4914673 0.34605706 0.17190683 0.36392394 0.1895819 -0.044337973 0.34017769
-0.28985998 0.33356947 -0.12429615 0.26244923 -0.0075600413 0.30172768 -0.32381818 -0.20077981
0.08679916 -0.17260943 -0.14578259 0.06084535 0.45414096 0.50904304 -0.17026399 -0.021729538
0.07243806 0.1353172 0.58876455 -0.08836104 0.26487836 -0.107087076 -0.084765494 0.10539023
0.556158 0.24274004 0.02708352 -0.50596637 -0.25230303 0.33292904 -0.39549208 0.2932333
0.043315608 -0.622161 -0.3310991 0.053356692 -0.59675765 -0.2202541 0.41969836 0.34905517
-0.21411726 -0.5063157 0.031674784 0.10589644 -0.20819108 0.41356426 -0.24641456 -0.21545652
-0.34229898 -0.18170814 0.3634827 0.18284193 0.123483345 -0.015256828 -0.021388179 0.07682378
00000000: e543 b8bd d5f8 cb3d a185 a3be 57e3 673e
00000010: 2096 85be 2496 d2bd 6e99 b1be 4050 efbd
00000020: 7c64 f8bd bf50 18bb 88db b63d 10db 59bc
00000030: 9617 8a3d 5f7d b23e 1439 d03e b93a c33c
00000040: 2e41 09be c446 aebd 3adc 9b3e 16d0 c8bc
00000050: c354 b6bd 9e17 cdbe e413 283e 1c25 95bd
00000060: 8e2e 783e fa50 3d3e 316c 113e d54b b0bc
00000070: b8de 8a3e bc55 75be cc7d 9fbe ccfd 733d
00000080: 5805 493b 633c 6d3e 56b5 f93c b333 e23d
00000090: dc39 dabe de68 183d 05a8 17be fc38 8e3c
000000a0: d090 8c3e 6788 94be e653 dd3c f6b1 cdbe
000000b0: a0eb 5ebe d379 ac3e 2574 9b3e e4f6 843a
000000c0: e545 5dbe 588c ef3d dbac 2dbd 09e8 c7be
000000d0: 7d95 35be 870d 8b3e 903f 0e3e 9740 27be
000000e0: 8d4f db3c ca93 173e d4c7 d73d 2bb2 90be
000000f0: 2fd8 093e f1cd c9be d1d8 8b3e 6a5f cb3c
00000100: 517d 46be 904e c43c 8358 67be 0540 79bd
00000110: 862e b6bd 5f1f c2be 66f6 1ebe be93 23be
00000120: 9827 54bc d65f e1bc 07be 5dbd 7c73 593e
00000130: b057 de3e e83e 6c3d 0248 d13d 468c d5be
00000140: 626d 813e a1d5 353d 5f19 8abe 2ada cd3e
00000150: e756 b23e a1e1 cbbe da77 1bbd 7b65 59bc
00000160: 56f3 463c 64dd 8a3d f467 d2be 3277 17be
00000170: 2a26 383d 8111 5abe 47e4 1a3e 5d0f 3d3d
00000180: 337d a7be 4b9a c7be 78db 723e 947b 813e
00000190: 6fa0 a6bd bb09 d1bc 8464 7fbe fb87 92bb
000001a0: 0bca 9cbd ad26 50be 827a ab3e 184e 433d
000001b0: fe79 da3d 59f5 e0be 76b0 863e 1e5f 3f3e
000001c0: 7c27 57be 0510 7d3e 28d6 193e 7df2 49be
000001d0: 1748 d1bc 26a8 1c3e c60d e03d 2ea4 7d3d
000001e0: e123 583e b2cd 803e 6f50 83be cb9a d83e
000001f0: b103 21be 7815 d8bd f898 353e 1fb7 883d
00000200: 915d 34be 9aa1 fb3e 642e b13e 5808 303e
00000210: 3d54 ba3e c221 423e bc9b 35bd c52b ae3e
00000220: 8768 94be 9ec9 aa3e fb8e febd bf5f 863e
00000230: 39ba f7bb 0d7c 9a3e 7fcb a5be 3999 4dbe
00000240: c2c3 b13d 87c0 30be 0848 15be f938 793d
00000250: 2a85 e83e a550 023f af59 2ebe 2502 b2bc
00000260: 685a 943d 9890 0a3e 46b9 163f a2f6 b4bd
00000270: 239e 873e 7850 dbbd 8899 adbd d5d6 d73d
00000280: 5f60 0e3f d890 783e 42de dd3c 0387 01bf
00000290: dd2d 81be ad75 aa3e f07d cabe ad22 963e
000002a0: b56b 313d f145 1fbf d285 a9be 8c8c 5a3d
000002b0: 1cc5 18bf 4a8a 61be b4e2 d63e 5cb7 b23e
000002c0: 8e41 5bbe e89d 01bf 6bbd 013d 3ce0 d83d
000002d0: 0b30 55be b2be d33e 1954 7cbe a2a0 5cbe
000002e0: d041 afbe b311 3abe 681a ba3e ea3a 3b3e
000002f0: d6e4 fc3d c6f7 79bc 4336 afbc c955 9d3d

actor_mean.0.bias f4 [64]
-0.04484977 -0.10369585 0.24661765 0.28672963 0.08681839 -0.008109074 -0.15068805 0.2237973
-0.12894884 0.043909367 -0.10612409 -0.18915866 0.30261692 0.012577842 -0.06472509 0.036032934
-0.011097816 -0.18594769 -0.0670267 0.050800662 0.053876795 -0.6954127 0.12377493 0.19926889
-0.063014634 0.1629356 0.056541536 -0.024262268 0.19284317 -0.067799 0.11750735 0.059441682
-0.17881969 0.105088785 0.101638734 -0.17969656 0.07128229 0.09731728 -0.024669176 0.012291754
0.10399884 -0.2167302 0.09622849 -0.27356625 0.0593752 0.14619985 -0.08299503 -0.09647014
0.019806461 0.074247666 -0.009441418 0.052440077 -0.093045495 -0.059526995 -0.037128076 0.15788853
-0.03269862 -0.037044704 0.23208477 0.27793184 -0.14780667 0.17278823 -0.17632824 0.363443
00000000: 64b4 37bd 7d5e d4bd 5689 7c3e 3ace 923e
00000010: d7cd b13d ecdb 04bc f84d 1abe 1f2b 653e
00000020: 2a0b 04be 4fda 333d 9657 d9bd cfb2 41be
00000030: 9bf0 9a3e 4b13 4e3c 978e 84bd 4597 133d
00000040: 9dd3 35bc 1269 3ebe 4b45 89bd 5b14 503d
00000050: eaad 5c3d 9106 32bf b67d fd3d 250d 4c3e
00000060: d10d 81bd 97d8 263e 1998 673d aac1 c6bc
00000070: ae78 453e 34da 8abd b2a7 f03d 1f79 733d
00000080: 821c 37be ca38 d73d f827 d03d 6002 38be
00000090: 73fc 913d 484e c73d 0317 cabc 5a63 493c
000000a0: 58fd d43d 86ee 5dbe 7113 c53d e010 8cbe
000000b0: 6933 733d 6ab5 153e 4cf9 a9bd 2392 c5bd
000000c0: 2941 a23c 290f 983d 2db0 1abc 68cb 563d
000000d0: a38e bebd 94d2 73bd 9c13 18bd 88ad 213e
000000e0: fdee 05bd 30bc 17bd a1a7 6d3e 154d 8e3e
000000f0: a25a 17be 66ef 303e 648f 34be 3315 ba3e

actor_mean.2.weight f4 [64, 64]
0.06426247 -0.11167744 -0.24979663 0.13379619 0.028724045 -0.14866532 -0.100362726 0.13830583
-0.082665205 0.26146573 0.04401901 0.101471886 0.17061573 -0.17991762 -0.29043403 0.12549369
-0.08982535 -0.20411031 0.014734753 0.0148194125 0.085461 0.13439445 0.021879278 -0.286607
0.3476755 -0.082363024 -0.2374105 0.24767259 0.23708181 -0.008503444 -0.08299599 0.19721317
-0.14139217 -0.12029286 1.1353809e-05 0.6507817 -0.0501072 -0.20472766 -0.058609057 0.11231284
-0.11753798 0.0014479258 -0.18106031 0.013965413 -0.062383205 0.11719688 -0.0066650347 -0.025954138
-0.15512551 0.3139768 0.18496816 0.13452673 -0.011063411 0.33923987 -0.3778852 0.12993185
0.03848091 -0.5064636 0.3440677 0.3821144 0.21727598 -0.10831594 0.44529915 0.16042554
-0.08935894 0.10068629 0.21458636 -0.26632392 0.0753447 0.124018185 -0.22341755 -0.16515577
0.041983467 -0.48861194 0.11404993 -0.02512292 0.05045311 -0.04487963 0.15679893 -0.046642214
-0.1672666 0.09979868 0.15484744 0.37951156 -0.10752851 -0.07808675 -0.18005139 0.02235771
-0.083502196 -0.19275565 0.021038514 0.04823553 -0.045224216 -0.25822976 0.27127755 -0.1773744
0.4432941 -0.033130385 0.007406867 0.41012064 0.18443483 -0.12895879 -0.15118821 0.010485279
-0.013685045 0.47906467 0.019781753 -0.052720726 -0.06702814 0.22616513 0.27654803 -0.22743396
0.014798271 0.11162342 -0.006492319 0.0393995 0.13996519 -0.12931895 0.15697941 -0.23290008
-0.017083732 -0.16843928 -0.066519156 0.07974827 -0.2823709 0.1766362 -0.038671993 0.18922369
-0.06251868 -0.2265203 -0.1854322 0.22620545 -0.046106547 -0.21722919 -0.025578812 -0.14718679
0.08066682 -0.32566497 0.33287925 0.19371957 -0.07694014 0.023378728 0.12755954 -0.08203472
0.31190112 0.0492818 0.0028798846 -0.079340294 0.4252111 -0.058369786 -0.059139743 0.14604509
-0.10775579 -0.2060112 0.03416142 -0.07602422 0.26900908 0.033500925 0.16829695 -0.23357923
0.045688484 -0.1879334 -0.4656688 -0.08801493 0.30380288 0.01722919 0.2471128 0.2473976
0.091061786 -0.019023256 -0.0021012041 -0.037248965 -0.094890594 0.030371329 -0.259117 0.33340856
-0.09906699 0.118702695 -0.003476094 -0.18607499 0.1060819 0.047849406 0.23197308 0.08141114
0.12609637 -0.021607947 -0.15913498 0.09907946 -0.30032137 0.38499838 0.07787377 -0.31892657
-0.038816232 0.16248716 -0.08510279 -0.12409583 0.14719573 0.031682316 -0.12233974 -0.12336432
-0.12480435 -0.101722576 0.035747163 -0.046880156 -0.054702196 -0.054876346 0.111543216 0.11261392
-0.2297545 0.10044022 0.21230653 -0.2763804 0.060756356 -0.09718375 0.08685586 -0.22973245
-0.16336133 -0.022300372 0.044737197 0.22969633 0.14222407 -0.25885856 -0.068851136 0.23705243
-0.19541898 -0.16185866 0.12951474 -0.2680809 -0.44851008 -0.23639917 -0.13317661 -0.10723761
0.3524821 -0.08110638 0.25002035 -0.058438517 0.3950402 -0.11468101 -0.092764296 0.11041461
0.15172216 0.11608879 -0.06499064 -0.2400281 -0.24942826 -0.04352616 0.04759154 -0.16711178
-0.2909157 -0.33658108 0.15765983 0.37960145 0.34295496 0.19321506 0.113880605 -0.18130168
00000000: 0b9c 833d 24b7 e4bd b0ca 7fbe de01 093e
00000010: b04e eb3c b93b 18be f98a cdbd 0ba0 0d3e
00000020: 604c a9bd d6de 853e 474d 343d 7ed0 cf3d
00000030: e4b5 2e3e 533c 38be c5b3 94be 6b81 003e
00000040: 5af6 b7bd 4b02 51be 096a 713c 1fcd 723c
00000050: 2d06 af3d b39e 093e 2c3c b33c 27be 92be
00000060: 8602 b23e f2ad a8bd bd1b 73be e29d 7d3e
00000070: 93c5 723e 0752 0bbc cdf9 a9bd 40f2 493e
00000080: 1cc9 10be 1a5c f6bd 3d7c 3e37 a199 263f
00000090: 353d 4dbd 21a4 51be 0d10 70bd 4604 e63d
000000a0: c1b7 f0bd 54c8 bd3a e067 39be 30cf 643c
000000b0: 8885 7fbd eb04 f03d 5d66 dabb c69d d4bc
000000c0: 39d9 1ebe 91c1 a03e 4b68 3d3e 60c1 093e
000000d0: 4f43 35bc d9b0 ad3e 2b7a c1be db0c 053e
000000e0: 299e 1d3d 99a7 01bf a429 b03e 80a4 c33e
000000f0: 987d 5e3e bfd4 ddbd 40fe e33e 9846 243e
00000100: d201 b7bd 9d34 ce3d 87bc 5b3e 9c5b 88be
00000110: 524e 9a3d 3ffd fd3d 92c7 64be 981e 29be
00000120: dbf6 2b3d 582b fabe 0293 e93d 95ce cdbc
00000130: eca7 4e3d b4d3 37bd e68f 203e e80b 3fbd
00000140: f047 2bbe 4063 cc3d 5490 1e3e 574f c23e
00000150: e837 dcbd f2eb 9fbd 645f 38be 8427 b73c
00000160: 3303 abbd bd61 45be f658 ac3c 9e92 453d
00000170: 073d 39bd b136 84be e4e4 8a3e a2a1 35be
00000180: 72f7 e23e bab3 07bd 4eb5 f23b 55fb d13e
00000190: 7cdc 3c3e c60d 04be 15d1 1abe 73ca 2b3c
000001a0: 3d37 60bc f747 f53e 580d a23c b0f1 57bd
000001b0: 0d46 89bd d597 673e b497 8d3e 73e4 68be
000001c0: 7274 723c d29a e43d 85bd d4bb 5f61 213d
000001d0: 0953 0f3e 306c 04be 36bf 203e 5c7d 6ebe
000001e0: 2ff3 8bbc 597b 2cbe 323b 88bd 1053 a33d
000001f0: eb92 90be 1fe0 343e 8666 1ebd dbc3 413e
00000200: cb09 80bd f0f4 67be f0e1 3dbe 67a2 673e
00000210: 38da 3cbd 5471 5ebe a88a d1bc 22b8 16be
00000220: a534 a53d 8fbd a6be 266f aa3e 6c5e 463e
00000230: cb92 9dbd bf84 bf3c f89e 023e d201 a8bd
00000240: 81b1 9f3e b6db 493d 72bc 3c3b 2a7d a2bd
00000250: 45b5 d93e 2815 6fbd 843c 72bd d88c 153e
00000260: 11af dcbd 9af4 52be d8ec 0b3d 96b2 9bbd
00000270: 8fbb 893e 4438 093d 0956 2c3e 652f 6fbe
00000280: d923 3b3d 9d71 40be 246c eebe 2c41 b4bd
00000290: 0d8c 9b3e 3b24 8d3c 230b 7d3e cc55 7d3e
000002a0: 9a7e ba3d a9d6 9bbc 5bb4 09bb 5f92 18bd
000002b0: 0056 c2bd 4bcd f83c fcaa 84be 87b4 aa3e
000002c0: a2e3 cabd 661a f33d 2ecf 63bb 718a 3ebe
000002d0: 7841 d93d bdfd 433d 5a8a 6d3e e2ba a63d
000002e0: 681f 013e 2603 b1bc 48f4 22be 2cea ca3d
000002f0: b9c3 99be 821e c53e 487c 9f3d 584a a3be
00000300: c5fd 1ebd 0963 263e 5f4a aebd f425 febd
00000310: 7aba 163e 51c5 013d 428d fabd 6fa6 fcbd
00000320: 6c99 ffbd ed53 d0bd 9e6b 123d 6805 40bd
00000330: 690f 60bd 05c6 60bd c570 e43d 20a2 e63d
00000340: c344 6bbe 9ab3 cd3d e266 593e bb81 8dbe
00000350: a8db 783d 4608 c7bd 7ce1 b13d fc3e 6bbe
00000360: 3148 27be 45af b6bc 5a3e 373d 8435 6b3e
00000370: 30a3 113e 1c89 84be d301 8dbd dfbd 723e
00000380: ea1b 48be 47be 25be 839f 043e e641 89be
00000390: 1da3 e5be a012 72be 735f 08be 649f dbbd
000003a0: 8978 b43e 1a1b a6bd ab02 803e 3a5d 6fbd
000003b0: b642 ca3e e1dd eabd 35fb bdbd 0e21 e23d
000003c0: 0e5d 1b3e f6bf ed3d d019 85bd edc9 75be
000003d0: 1f6a 7fbe 7d48 32bd 59ef 423d 5a1f 2bbe
000003e0: e7f2 94be 5b54 acbe 9471 213e 1f5b c23e
000003f0: cb97 af3e 2bda 453e 3c3a e93d 26a7 39be

actor_mean.2.bias f4 [64]
0.005106425 -0.068040155 0.02389915 0.024627429 0.024810616 -0.14362122 -0.0014630723 0.049040288
-0.20309502 0.02806505 0.18800415 0.033201817 -0.030066323 0.16925922 0.018373642 -0.05515316
-0.06909993 0.080581926 0.10516183 0.04091053 -0.09187362 0.046712 0.016912928 -0.31005418
-0.042015422 -0.13551565 0.15969853 -0.0105779 0.033911675 -0.008334651 0.07884177 -0.08713056
-0.21630293 -0.008734745 -0.024161475 -0.15759945 0.18814154 -0.006649059 0.073339045 -0.22212224
0.069884405 -0.04651197 0.0075518913 -0.059902195 0.101768784 0.0037618792 -0.058769647 -0.112802014
-0.06865192 -0.10834788 0.0622624 -0.23139122 -0.025361044 0.17796578 -0.15895677 0.116391554
0.15331945 0.040924635 0.12495913 -0.022816947 -0.03928686 -0.175203 0.17464873 -0.12230398
00000000: cc53 a73b a358 8bbd 26c8 c33c 76bf c93c
00000010: a23f cb3c 7111 13be 8fc4 bfba 78de 483d
00000020: 24f8 4fbe ade8 e53c 2984 403e a1fe 073d
00000030: a64d f6bc 4a52 2d3e 5284 963c 48e8 61bd
00000040: 4484 8dbd 2308 a53d 165f d73d cd91 273d
00000050: 3d28 bcbd 1555 3f3d fb8c 8a3c 6cbf 9ebe
00000060: 5d18 2cbd 9dc4 0abe 0388 233e ee4e 2dbc
00000070: f8e6 0a3d 0f8e 08bc cb77 a13d 8271 b2bd
00000080: 847e 5dbe 2d1c 0fbc 49ee c5bc c061 21be
00000090: 2da8 403e 59e0 d9bb c832 963d 0374 63be
000000a0: 8e1f 8f3d 5683 3ebd db75 f73b 015c 75bd
000000b0: 276c d03d dc89 763b 71b8 70bd be04 e7bd
000000c0: 6199 8cbd 7ee5 ddbd dc06 7f3d d2f1 6cbe
000000d0: f7c1 cfbc a93c 363e 90c5 22be b25e ee3d
000000e0: c6ff 1c3e 97a0 273d 93ea ff3d 9bea babc
000000f0: 42eb 20bd 6a68 33be 1ed7 323e 827a fabd

actor_mean.4.weight f4 [1, 64]
-0.15171733 0.111340374 0.06751791 -0.32725722 -0.18771519 0.122954875 -0.02428088 0.057485145
-0.22766545 -0.17416431 -0.13250202 -0.11088297 0.08700946 -0.13957967 0.052513737 0.25641322
-0.0036064505 0.14649561 0.066820286 -0.23874213 0.17441006 -0.11984575 -0.15327738 0.16060373
-0.13258646 -0.18330413 -0.08440357 -0.25171974 -0.117089964 0.2166371 0.06299549 0.16416991
-0.086456865 -0.049667746 0.061949126 -0.07065726 0.09062452 0.08700441 0.067431204 -0.0926738
0.1548115 0.17579718 0.21290924 0.15585314 -0.092156865 0.06881933 -0.15211673 -0.24002138
0.219971 -0.07517745 0.046795994 -0.11037258 -0.16476548 0.13090977 -0.18726595 0.26190653
-0.19999628 -0.14086498 -0.23571518 0.1967236 0.105448134 -0.17675942 0.070392616 -0.09338989
00000000: ca5b 1bbe 6c06 e43d d446 8a3d 428e a7be
00000010: 6938 40be c4cf fb3d b2e8 c6bc 8b75 6b3d
00000020: 2221 69be 2158 32be 9cae 07be 9c16 e3bd
00000030: 0432 b23d f9ed 0ebe a518 573d 9848 833e
00000040: 335a 6cbb f202 163e 13d9 883d d178 74be
00000050: 8d98 323e b071 f5bd bff4 1cbe 4e75 243e
00000060: bfc4 07be 14b4 3bbe c7db acbd 69e1 80be
00000070: ddcc efbd 1ed6 5d3e c803 813d 281c 283e
00000080: 4c10 b1bd 6870 4bbd 5ebe 7d3d c1b4 90bd
00000090: 5999 b93d 5e2f b23d 5f19 8a3d c3cb bdbd
000000a0: e886 1e3e 2d04 343e e104 5a3e f797 1f3e
000000b0: bdbc bcbd 26f1 8c3d 7dc4 1bbe 2ac8 75be
000000c0: 1440 613e a3f6 99bd 28ad 3f3d 050b e2bd
000000d0: 48b8 28be 360d 063e a5c2 3fbe 9d18 863e
000000e0: d3cb 4cbe e93e 10be 525f 71be e971 493e
000000f0: 31f5 d73d 6c00 35be 012a 903d 3343 bfbd
