models/Pendulum-v1__ppo__1__1767293369_final.pth (torch, 41709 bytes, 10 tensors)

critic.0.weight f4 [64, 3]
00000000: ebd1 45bd 0852 3d3e b1a4 cabd 773c 71bd
00000010: 7534 3b3f 15b6 8dbd 7041 a5bc 0b2f bcbe
00000020: d7e2 a8bc 300c b83e 1673 1fbe c02f 033e
00000030: 5e6d 45be d03a af3e 6443 10be fa2c f9be
00000040: 496c b4bf a079 d9be 188a 04bb c7eb 1cbe
00000050: a497 f83d 3d7e 23be b48b 9f3d 3439 433e
00000060: 4055 9d3e 439e d2be c5f6 55bc 3f37 c0bd
00000070: 18a1 343e 16e2 6fbd 0908 183e 5813 cabd
00000080: cdd2 213c 70d0 cbbd 5c93 87bd 0fc6 5c3d
00000090: 5625 d5be a4f7 7bbe 2615 4ebe 03ad 083d
000000a0: 3667 203e 7a0a 01be 7135 a03e 95a5 043e
000000b0: 1bcb 5e3d e40a ad3e fe1b 2abe 3e37 923d
000000c0: de00 8d3e 1f62 2fbd 8872 ac3c 1c2a 853e
000000d0: 9288 29be fc9f 0d3e d807 c7bd 6c33 a2bd
000000e0: 44f1 943d 5c88 333c bc3d 8ebb 96cb d83b
000000f0: 7fcb 0e3f f920 a3bf 5cc4 e9be 1fc6 72be
00000100: 4943 013e 30f2 02be e3bb 2e3e 02a8 183e
00000110: 0ed2 713e 2134 4c3e 0196 283a b016 02be
00000120: b9ec 813e d48b de3d 2e47 58be 81cf 6bbe
00000130: b08a 30be ce70 2b3e 507c d53d 20c5 893e
00000140: 35b1 18be 9aef 193c 42d3 fabd f671 d63d
00000150: af86 6f3c a114 05bd 9816 153d fb10 ecbe
00000160: bf14 2e3e 5223 d2bd 85eb cd3d 940b 6f3e
00000170: 8162 18be fd93 f43e 3183 62bf a171 11bf
00000180: 06dd 79bd 7c33 1c3e 5ee0 59bd 8b02 11bf
00000190: 0f80 50bf b113 ddbe e0e3 c23e d698 e5ba
000001a0: 2a6f c03d 18e9 ad3d 39dc 9ebe ea28 1c3e
000001b0: c32b 14bf 29c9 c63e a638 b23e 5a6d 013e
000001c0: f3d4 39be b449 0e3e 42b7 ffbd 30f9 81be
000001d0: 9879 903c 8eb1 8f3d 6c6e 9a3e 1ff3 08be
000001e0: 1730 ad3e 2aef b3bd 8902 abbd 71b6 5abe
000001f0: a5cc e83d 770f 8d3c f450 88be e9c5 233e
00000200: ef4b d5bd 65d4 07be 3bc5 393e da75 3abe
00000210: 5de8 dfbd 0818 aabe 6841 1a3e 139f e13e
00000220: 3cba 5f3f 8fce e83e 4533 d63d 6664 4a3d
00000230: 52a9 e9bd 07b7 dabe f355 48bf 087e cebe
00000240: 0a37 a33e 3dc1 15bf 7119 a8be ab63 063e
00000250: f521 71bd eef0 243d e4db 943d 606c d83c
00000260: b041 03be 1a46 993e 9b5f 103e abae 1bbe
00000270: 8f19 02bd fefc c53d 2cdf c7bd 7ca7 4e3c
00000280: 6c67 4cbe 1cf4 1a3e 39db 22be f56d 1d3e
00000290: 91b3 c7bd afab f7be f68d 43be db24 ad3d
000002a0: b7db d8bd e694 cfbe 4770 1c3e 3f4c 3e3e
000002b0: b81b 2abd 024d 9d3d f50e 6e3e 4e83 de3e
000002c0: c95f 4bbd 9788 b03e b27c 793e e0a1 aebd
000002d0: 14d9 0abe d1db 96bd 8f60 093e 4d4c 573e
000002e0: a5cc 2a3e 91b0 e8bd 30a6 c0bd 59e0 9dbd
000002f0: 1ade bf3c 1b7e cabe cd74 74be 3bb7 c7be
-0.048295897 0.18488324 -0.09894694 -0.058895554 0.7312692 -0.06919495 -0.020172805 -0.3675464
-0.020615978 0.35946798 -0.15571246 0.12811184 -0.19280002 0.34224558 -0.14088207 -0.48667127
-1.4095546 -0.42475605 -0.0020223912 -0.15324317 0.12138298 -0.15966125 0.07790318 0.1906479
0.30729103 -0.4113637 -0.013059323 -0.09385537 0.17639577 -0.05856522 0.14846815 -0.09866971
0.009876919 -0.09951866 -0.066199034 0.05389982 -0.41630048 -0.24606186 -0.20125255 0.03336812
0.15664372 -0.12601653 0.31290773 0.1295379 0.054392915 0.3379737 -0.1661224 0.07139443
0.27539724 -0.042818185 0.021050707 0.2600869 -0.16556004 0.1383056 -0.09718293 -0.07919964
0.0727258 0.010957804 -0.0043408554 0.006616066 0.5577926 -1.2744437 -0.45657623 -0.2370839
0.12623324 -0.127877 0.1706386 0.1490784 0.23615286 0.1994176 0.0006431044 -0.12703967
0.25375918 0.10866514 -0.21120903 -0.23028375 -0.17240405 0.1674225 0.10424101 0.26908207
-0.14911349 0.009395504 -0.122473255 0.10470955 0.014619513 -0.032490376 0.0363985 -0.46106705
0.17000102 -0.10260643 0.100546874 0.2334426 -0.14881326 0.47769156 -0.8848143 -0.5681401
-0.0610018 0.15254015 -0.05319249 -0.56644505 -0.814454 -0.43179086 0.3806448 -0.0017516862
0.09396203 0.08491725 -0.31027392 0.15249982 -0.57879275 0.38825348 0.34808844 0.1263937
-0.1814764 0.13895303 -0.124861255 -0.25385427 0.017636105 0.07016288 0.3016237 -0.13373993
0.33825752 -0.08785851 -0.08350093 -0.21358658 0.11367158 0.017219288 -0.26624262 0.15993465
-0.10414874 -0.13264616 0.18141644 -0.1820902 -0.10932992 -0.3322146 0.15064013 0.44066676
0.87393546 0.45470092 0.10458998 0.049412154 -0.114092484 -0.42717764 -0.7825615 -0.4033053
0.3187793 -0.58497983 -0.3283191 0.13123958 -0.058870275 0.04026883 0.07268503 0.026418865
-0.12818027 0.29936296 0.1409897 -0.1520335 -0.031762656 0.09667395 -0.097593635 0.012613174
-0.19961327 0.15132183 -0.1590394 0.15373977 -0.097510464 -0.48373172 -0.19097123 0.08454295
-0.10588782 -0.40543288 0.15277205 0.18583773 -0.04153034 0.07680704 0.23247893 0.43459553
-0.049651895 0.3447921 0.24363974 -0.08526969 -0.13559371 -0.073661454 0.1341574 0.210252
0.16679628 -0.11361802 -0.09406698 -0.077088065 0.023421336 -0.39549336 -0.23872681 -0.3900698

critic.0.bias f4 [64]
00000000: 4fe2 8dbe 278b 353e e6b0 06be 4be6 98be
00000010: b9a2 913e 3f5f 6cbe 3397 993e 42a2 3e3e
00000020: 78c7 49be 3603 25be 6262 86be 2cb2 85be
00000030: 008c 513e 1c41 a5be 8e7d 84be 6229 94be
00000040: 5fe2 90be 4c94 873e 030f 9a3e 5ef8 9b3e
00000050: e056 7c3d eaf4 883e 876b 37be 5b98 6dbe
00000060: 71b2 6bbe bfdf 873e b438 90be b99b 97be
00000070: e8a6 993e d3cd 83be 437c 9e3e d364 893d
00000080: c368 893e eaff a13d 0f2c 7ebe 9a0d 87be
00000090: 2018 623e 14e7 813e 9586 403e 0418 843e
000000a0: e37b 81be 5e4a 763e e1d3 743e 25a5 5b3e
000000b0: 7285 6c3e d32c 253d 6906 73be 9e00 63bc
000000c0: f990 7cbd 5290 9fbe fd77 6abe 7831 83be
000000d0: a5d8 8abe f40a 86be 4cd5 933e 8428 883e
000000e0: cf40 913e 2875 8bbe 9e92 4dbe 1469 90be
000000f0: f083 8fbe b232 85be 7560 843e 4599 043e
-0.27711722 0.17728864 -0.13153419 -0.298632 0.2844446 -0.23083209 0.29998168 0.18616584
-0.19704998 -0.16114506 -0.26246935 -0.26112497 0.20463562 -0.32276237 -0.2587704 -0.28937823
-0.28297707 0.2648033 0.30089578 0.30462927 0.061606288 0.26749355 -0.17912112 -0.2320265
-0.23017289 0.26537892 -0.2816826 -0.29610994 0.30010152 -0.2574297 0.3095418 0.06708684
0.2683774 0.0791014 -0.24821495 -0.26377565 0.22079515 0.2537161 0.18801339 0.25799572
-0.2528983 0.24051806 0.2390895 0.21449716 0.2309778 0.04032595 -0.23732914 -0.013855128
-0.061661694 -0.31164795 -0.22897334 -0.2562368 -0.27118412 -0.26180232 0.2887367 0.2659341
0.28369758 -0.2723782 -0.20075461 -0.28205168 -0.28030348 -0.2601524 0.2585484 0.12949093

critic.2.weight f4 [64, 64]
00000000: fc57 df3d 4882 b63e 4ac5 80be 0397 40bf
00000010: eef3 333f 6e11 023f 3062 343e 6aad 653e
00000020: 1076 2ebf d4a2 17be 4a9c 353e 4552 6abe
00000030: 33a4 7b3e a9f4 14bd a2a2 b9be d768 82bf
00000040: 6215 79bf dc2a 103e e4e1 2a3e c636 b23d
00000050: e24f a3be 1430 663f c08a c0be 997c 8dbe
00000060: b86b c3be 7af9 08bd 3fb8 81bd 6f3b debe
00000070: 7763 933e 6ce7 5fbe f8df 0d3d 0aee 49be
00000080: ec60 dd3e 543c b63e 5ce2 f4be cf17 9bbe
00000090: 9272 0b3e 3e65 1ebd 2909 b73e 3725 56bc
000000a0: 9dd3 16bf c20c 2e3f a2e5 1b3f 6f74 3e3e
000000b0: cb66 14be 0583 ffbe 7bd7 53be 6440 df3e
000000c0: e8fe 92be 13cc dabe a156 a3be dfb2 b13c
000000d0: 4803 8dbd 601b 4abe e0c0 af3e b116 83bd
000000e0: bcfd 293e 3866 cfbe 4d4d 90bd 52ad 0fbf
000000f0: 962e 063e 63f3 36bf 860d 163e 5db1 8a3e
00000100: 3bff ba3d d6bf 59be c90f 353e 53df 5c3f
00000110: b5a8 f3be 10f5 36be 7cc2 9bbd 466a a8bc
00000120: d9af 4a3e dcd4 28bd 8045 c13e b925 073e
00000130: 5634 59bd 0c93 7e3e 7db3 173f 4e55 253f
00000140: cacd 543f 787a 483c c60f 19be 9211 d2bd
00000150: fe8f 173e 94fa 53bf 8afd 943e 5b9d c23e
00000160: 332d d2bc e7fa 2dbf cb07 48be a849 063d
00000170: c548 2cbe 537e f7bd 232d 0fbe 605a f63e
00000180: 196a afbd 650d c0be 76ff 7b3e d349 383e
00000190: 307f f3be ee98 64be 7d54 133c a3d3 81be
000001a0: b8cb 2a3f 128e 6abf 6102 47bf 84c8 98be
000001b0: 6381 7abe 6908 123f 83f4 69bd 047b afbe
000001c0: a887 313e f55c b73e 4637 7a3e 0c92 f93e
000001d0: 0c05 85bd 08ff 2e3e 95e7 9fbe cfb1 abbc
000001e0: 6b9c e43c 58ec 4e3f e852 b83e fd1a c63e
000001f0: a29e 33bd b79b 363f fc63 fabd 4c9c 87be
00000200: 0003 bbbd 9611 b2bc b389 0a3e 3d60 eabe
00000210: 2699 eb3d e830 413e e792 853e 8565 273f
00000220: 0b61 3a3e 8407 37be 4f7b febd 3ec2 1cbe
00000230: 3a4f 013f ac7b b7be 4a0c 2cbf 0dba 2cbf
00000240: 3e5b 4dbf 22be 843c b3f5 b23e 9fb9 353e
00000250: 86eb 37bf 5c09 dc3e 3787 f33c e696 aabe
00000260: e874 93be d1aa f33e caff edbd f7bf 91be
00000270: 4eff 113e 59db 31be 3eae 14bd 6b6d e0be
00000280: b27a b93d 5b73 303e e704 07bf 9ebf b73e
00000290: d1da 513d 01e5 cb3e 73a0 83bd 0697 ed3d
000002a0: 8cd3 04bf 389e 603e de03 1d3f 9370 533e
000002b0: 968b a43e 42c3 edbd 4fb2 90be e0fc a4be
000002c0: 7388 a7be 6cb4 87bd 90b2 59be e3ed 4fbf
000002d0: 7afa 90bd 8df9 5cbe 68a5 0c3e 44cf 983e
000002e0: 833d 9a3e 5144 dcbd 5f56 ddbe b1ac 70bf
000002f0: d464 6a3d cc6f 7dbf 3797 1b3f 2574 c13e
00000300: 698b e33e 001b 233f 04ef 67bf 189b 473f
00000310: 580b acbd 945b 93bf 8443 12be 5388 0c3e
00000320: 4d8a dcbe 5b44 f4bd 4638 bcbe a070 2bbe
00000330: 5131 0fc0 a582 3fbd e467 ca3f ce10 333f
00000340: 8f0e 5f3f 9b06 6c3e 00f5 cebd 51f5 fa3d
00000350: 32ee d6be 3c54 46bf 7784 1b3f f411 083e
00000360: 3e04 e13e 4022 e4be 33b4 033f 9428 31bc
00000370: cef6 f9bd 68eb febe eab3 15be 0fb0 253e
00000380: add3 ac3e ebf8 afbf a3d6 b83f 20e9 ffbb
00000390: 76d4 c2be bbad b73e 02a8 d4be 211e 1e3e
000003a0: ee3b 9e3e 1aa0 adbc a31b 34bf d6e3 99be
000003b0: 7741 a2be c2ba 7b3f e764 cb3c 1da8 07bf
000003c0: 5b7b f3be bc5e c83e cccb 88be 41c4 333f
000003d0: 6fee 12be 4ec3 0cbc 30e7 04be be3b 74bf
000003e0: 7520 bbbe 8135 503f 8c75 493f 776e a23f
000003f0: e12b 993e 6fd7 323f 577a b3be 5a88 edbe
0.109054536 0.35646272 -0.2515052 -0.75230426 0.7029408 0.50807846 0.1761558 0.22429433
-0.681489 -0.14808208 0.17735401 -0.22882946 0.24574356 -0.03636614 -0.3625689 -1.0188245
-0.9729825 0.1407885 0.16687733 0.087018535 -0.31896883 0.8991711 -0.37605858 -0.27634123
-0.3816812 -0.033441044 -0.0633397 -0.4340472 0.28786823 -0.21865624 0.03463742 -0.19719711
0.43238008 0.35592902 -0.47828948 -0.30291602 0.13617924 -0.03867077 0.35749176 -0.013070396
-0.58916646 0.67988217 0.60897267 0.18599103 -0.14492337 -0.49904647 -0.20687668 0.43603814
-0.28710103 -0.4273382 -0.3190203 0.021691738 -0.068853915 -0.19737005 0.3432684 -0.064008124
0.16600698 -0.40507674 -0.07045994 -0.5612384 0.13103709 -0.7146513 0.14653596 0.27088442
0.091307126 -0.21264586 0.17681803 0.86278266 -0.4758965 -0.17866921 -0.07605454 -0.020558488
0.19793643 -0.041218624 0.37748337 0.13197984 -0.053028427 0.24860781 0.5925825 0.6458329
0.8312651 0.01223623 -0.14947423 -0.102572575 0.14801022 -0.82804227 0.29099685 0.38010678
-0.025656318 -0.6796097 -0.19534223 0.032785088 -0.16824634 -0.12084641 -0.13982062 0.48115826
-0.085651584 -0.3751022 0.2460917 0.17996912 -0.47557974 -0.22323963 0.008992312 -0.25356779
0.667171 -0.9162303 -0.77738005 -0.2984048 -0.2446342 0.5704408 -0.05711795 -0.3427354
0.17336905 0.35813108 0.24435148 0.48744237 -0.06495103 0.17089474 -0.3123137 -0.02095881
0.027906617 0.8082938 0.36000752 0.38692465 -0.043852456 0.7133135 -0.12226102 -0.26486433
-0.091314316 -0.021736901 0.1352909 -0.4577655 0.1150382 0.18866313 0.2608864 0.6538928
0.18201081 -0.1787396 -0.12425863 -0.15308473 0.50511515 -0.35836542 -0.6720625 -0.6747139
-0.8021735 0.016203944 0.3495308 0.1774659 -0.71843755 0.4297589 0.029727561 -0.3331825
-0.2880013 0.4759126 -0.116210535 -0.2846677 0.14257547 -0.1736883 -0.036298983 -0.4383348
0.090566054 0.17231505 -0.52741855 0.3588838 0.05123407 0.39823154 -0.06427088 0.11601071
-0.51885295 0.21935356 0.61334026 0.20648412 0.32137746 -0.11609508 -0.2826104 -0.32224178
-0.3272129 -0.066262096 -0.21259522 -0.8122236 -0.070790246 -0.21579571 0.13734972 0.2984563
0.30125055 -0.10755218 -0.43229958 -0.94013506 0.057225063 -0.98998713 0.6077761 0.37783924
0.444423 0.63713074 -0.90599084 0.7797103 -0.08400601 -1.1512322 -0.14283568 0.13723879
-0.43074265 -0.119271 -0.36761683 -0.16742182 -2.237385 -0.04675545 1.5812955 0.69947517
0.8713159 0.23049395 -0.10105324 0.12253822 -0.41978604 -0.7747228 0.60749 0.13288099
0.4394855 -0.4455738 0.5144684 -0.010812897 -0.122052774 -0.49788976 -0.14619413 0.16180442
0.33755246 -1.3747839 1.4440502 -0.007809773 -0.3805272 0.35874733 -0.4153443 0.15441181
0.30905098 -0.021194506 -0.7035467 -0.30056638 -0.3169057 0.98331845 0.024828387 -0.52990896
-0.4755505 0.39134777 -0.26717985 0.70221335 -0.14348768 -0.008591486 -0.12978816 -0.9540366
-0.365482 0.8133164 0.7869499 1.2689961 0.2991629 0.69859976 -0.35054275 -0.4639309

critic.2.bias f4 [64]
00000000: f616 773e af1d 55be cd05 713e 230c a3bd
00000010: 7149 83be 041b 84be 1bcb 4f3e 0d20 67be
00000020: 8000 7f3e 46f9 633e c33b 71be b31b 8abe
00000030: c11b 8bbe c643 8b3e bad9 8bbe d46a 653e
00000040: ec12 53be 586e 57be b83e 8a3e 233e c23d
00000050: d84f 453e bb3f 5e3e 965c 91be 3649 833e
00000060: 7804 813e ef0c 72be 6aad 723e c766 663e
00000070: 7dc9 95be efb1 743e 724a 583e cd7a 5fbe
00000080: 40e0 4f3e b8e5 84be 1e30 6dbe 0542 833e
00000090: 54e8 7fbe 7f98 6b3e ba36 783e 0d81 94be
000000a0: 6feb 82be 9bdf 803e dfb9 89be 56d3 353e
000000b0: cb47 72be b25e 6bbe 59e2 623e daec a13e
000000c0: 81fc 8dbe 81a3 873e b305 963e d455 5d3e
000000d0: 114d 883e 65e8 5cbe 8925 9e3e df4e 8cbe
000000e0: eaf5 673e 9cf8 83be 83ba 803e edf6 8e3e
000000f0: d4a1 80be fbc8 953e 85df a93e 2e2e 313e
0.24129853 -0.20812105 0.23537369 -0.07961299 -0.2564197 -0.2580186 0.20292322 -0.2257082
0.24902534 0.22263059 -0.23557954 -0.26974258 -0.27169612 0.27200145 -0.2731455 0.22404033
-0.20612687 -0.21038187 0.27000976 0.09484508 0.19268739 0.21703999 -0.2839095 0.25641793
0.25198722 -0.23637746 0.23698965 0.22500144 -0.29255286 0.23896001 0.21122149 -0.21824189
0.20300388 -0.25956511 -0.23162887 0.25636306 -0.2499097 0.23007391 0.24239627 -0.29004708
-0.25570247 0.25170597 -0.2689962 0.177564 -0.236602 -0.22985342 0.22156657 0.31626016
-0.27731708 0.2649193 0.29301223 0.21614772 0.26621297 -0.21573026 0.30888012 -0.27403924
0.22652403 -0.2577561 0.25142297 0.27922764 -0.25123465 0.29254898 0.33178344 0.17302772

critic.4.weight f4 [1, 64]
00000000: d311 aebf a6c9 9a3f d57a 9cbf 7780 c63f
00000010: 2eb5 963f fd8b 9a3f 211f a0bf 2327 8d3f
00000020: 03a8 82bf b557 92bf e802 943f 7fba 873f
00000030: 4694 a73f 3faa 86bf 559c a63f c818 8ebf
00000040: 681e a03f 0462 ae3f dd50 a5bf bb8b bcbf
00000050: 94c1 96bf d16a 85bf f1f8 9d3f d103 9abf
00000060: e0ca 85bf 1da6 973f 2e54 98bf b3bc a1bf
00000070: 29d0 9e3f 759a a6bf 6809 92bf ac2d a23f
00000080: 7b43 b1bf 2310 9f3f e9ff a33f 9c5a 8cbf
00000090: d31e a63f ba09 a3bf 900b 99bf 4049 8f3f
000000a0: 40b4 a63f 4b2f afbf 1c9e a23f 108c 97bf
000000b0: 2f82 bc3f 6ae3 9c3f f2c5 a0bf 420f 85bf
000000c0: cffa 9e3f bff1 a5bf 7b5c 8bbf 288d 9cbf
000000d0: 5327 96bf f9e9 8c3f 8c5f 81bf da39 8f3f
000000e0: 3080 9dbf c8e6 913f caac 88bf 2045 98bf
000000f0: 6641 973f 63ee 92bf a784 87bf 600a 97bf
-1.359919 1.2092788 -1.2224985 1.5507954 1.1774042 1.2073971 -1.25095 1.1027569
-1.0207523 -1.1433016 1.1563387 1.0603789 1.3092124 -1.0520705 1.3016459 -1.1101313
1.2509279 1.3623662 -1.2915303 -1.4730142 -1.1777825 -1.0423223 1.2341596 -1.2032415
-1.0452538 1.1847569 -1.190069 -1.2635711 1.2407275 -1.3015887 -1.140912 1.2670188
-1.3848718 1.24268 1.2812473 -1.0965152 1.2978157 -1.2737343 -1.1956654 1.1194229
1.3023758 -1.3686308 1.2704501 -1.1839619 1.4727229 1.2256901 -1.2560408 -1.0395281
1.2420291 -1.29644 -1.0887598 -1.2230577 -1.1730751 1.1008903 -1.0107284 1.118953
-1.2304745 1.1398554 -1.0677731 -1.1896095 1.1816833 -1.1479 -1.0587357 -1.1800041

actor_mean.0.weight f4 [64, 3]
00000000: 7576 cebd 977a 2a3d b5e4 c0be ec52 9e3e
00000010: 6e08 90be 9395 90bd 202a c7be 61d3 05be
00000020: d0d6 d7bd 3441 65bd b8c9 ec3d 28ed afbc
00000030: ffdd e73c 566b 273f 7d83 d33e cf80 b03d
00000040: b021 4dbe f203 9abd 57f3 da3e 8681 d93a
00000050: ad85 70bd 1102 e3be e7f1 073e c70c 8cbd
00000060: 8c06 403e c78d aa3e ad77 283e 189d 923c
00000070: 22aa 683e 6118 87be 46bf ddbe dc53 f53d
00000080: 3dc0 8ebb 5496 973e 9c69 d83c 9e83 d83d
00000090: 622c c7be cfa3 5bbd 6b27 1dbe 3036 143d
000000a0: acd5 833e 87b2 9dbe 5df0 493d c010 f4be
000000b0: 0438 62be f176 1a3f f840 343e f382 88bc
000000c0: f03e 90be 06f4 503e 5329 5fbd 6bee cebe
000000d0: 7642 f6bd c122 953e 8e10 133e fdd7 2cbe
000000e0: cff4 433d c303 4b3e 8210 653d 2983 94be
000000f0: 9871 013e 5b44 b6be 615c 9e3e e204 b43d
00000100: eb44 43be 3e7b 913c d617 94be 6104 09be
00000110: 62ed bfbd 60b7 a1be f2d1 84be 2e89 4bbe
00000120: 78e3 8d3d 2469 34bd 6b57 f2bc f255 b93e
00000130: 8aca f13e 263f 853d 339e db3d 78a9 cebe
00000140: 45f6 853e 639f 983c aaf7 60be ca7b e93e
00000150: 83fc 8f3e 3df6 04bf d7b1 48bc 0341 d13b
00000160: 9005 2fba 682d 9c3d 1856 0ebf 8070 d6bd
00000170: a0d2 303d 4280 98be 3d84 0e3e 519d 723c
00000180: 9ed5 a9be 118f b2be c194 773e fef9 923e
00000190: dfa3 9dbd 49f4 86bc 283e 85be a8c9 7fbd
000001a0: d703 c6bd b0c4 9abd fde2 083f 371f d73d
000001b0: 92d2 ad3d c529 d6be baab 933e d8f8 f83d
000001c0: 2214 28be 8bb1 993e 6c53 36bd 1b50 a5be
000001d0: d36b a6bb bf77 d43d 8502 073e fb26 9b3d
000001e0: d00b 7e3e 31df 373e 4aaf 8bbe ccac 043f
000001f0: 2da6 23be 9ffd b2bd 6219 873e 2bf4 4c3d
00000200: 5cc1 36be 9d7b 023f ca3d b63e aaa2 2e3e
00000210: bac3 003f 4dba 4b3e 28b1 cabc 134d a83e
00000220: 37bf 6fbe cde4 c43e 2b95 d3bd 4237 733e
00000230: 4047 a6bc a1c0 ae3e ffb5 cbbe a7fa 27be
00000240: 5e34 463e d86b 85be 8b3d 15be 7236 4d3d
00000250: f397 183f ca89 153f 0cd2 9abe ec88 8a3d
00000260: 0b56 8b3d 3613 2f3e 23ac 2a3f 3175 b8ba
00000270: 8cb9 a23e ef85 18be f55c 8cbd 737d c73d
00000280: 60f3 2a3f 9935 8e3e 4dd9 133d 7245 27bf
00000290: ae9a 94be ec89 9f3e 6f65 c2be 3419 a63e
000002a0: 60fa 873d eadb 3ebf 3e47 c1be 533c 603d
000002b0: 8477 2ebf 7e62 70be a09d db3e fcd1 9b3e
000002c0: 0b93 5dbe ce52 18bf 3faf 853d 4621 cd3d
000002d0: e1ec 3ebe bf83 cc3e 9997 8cbe 9c2b 62be
000002e0: 296d dfbe 42ad 4cbe 502e d23e a239 423e
000002f0: 91e6 f33d 0d3a babe 4b24 fa3d 75eb 8a3d
-0.10081188 0.041620817 -0.3767449 0.3092264 -0.2813143 -0.07059779 -0.38899326 -0.13068916
-0.10539019 -0.055970386 0.11561912 -0.02147539 0.028304098 0.65398157 0.41311255 0.08618318
-0.20032382 -0.07520284 0.4276378 0.0016594387 -0.058721233 -0.44337514 0.13275872 -0.068383746
0.18752497 0.33311293 0.16451903 0.017897174 0.2272115 -0.26385787 -0.43309993 0.119788855
-0.0043564127 0.2960688 0.026417546 0.10571979 -0.3890105 -0.053623017 -0.15347068 0.03618449
0.25748956 -0.30800268 0.049301494 -0.4766903 -0.22091681 0.6033774 0.17602909 -0.016664004
-0.28173018 0.20405588 -0.05448277 -0.40416273 -0.12024395 0.29128078 0.14361784 -0.16879268
0.04784089 0.19825654 0.055923946 -0.29006317 0.12640989 -0.35599026 0.30929855 0.08789994
-0.19069259 0.017758962 -0.28924435 -0.13380577 -0.09371449 -0.31585217 -0.25941426 -0.19876549
0.06928152 -0.044045582 -0.0295827 0.36198384 0.47224838 0.06506185 0.107235335 -0.4036367
0.2616445 0.018630689 -0.21969476 0.45602256 0.2812234 -0.5193823 -0.012249432 0.006385924
-0.0006676549 0.07625848 -0.5560012 -0.104706764 0.043169618 -0.29785353 0.13917632 0.014808015
-0.3317079 -0.34874776 0.24177839 0.28706354 -0.076972716 -0.016473906 -0.26023984 -0.062448174
-0.09668701 -0.075570464 0.53471357 0.10504001 0.08487429 -0.41828743 0.28841954 0.12156838
-0.1641393 0.30018267 -0.04451315 -0.32287678 -0.0050787716 0.10374402 0.13184555 0.07575794
0.24809194 0.17956235 -0.27282172 0.5182617 -0.1598136 -0.08739781 0.26386553 0.050037544
-0.17847198 0.5096987 0.35594016 0.17054239 0.50298655 0.19895287 -0.024742678 0.32871303
-0.23412786 0.3845581 -0.10331186 0.23751548 -0.020297647 0.3413134 -0.3978729 -0.1640421
0.19355914 -0.2605884 -0.14574258 0.05010075 0.59606856 0.58413374 -0.30238378 0.06764397
0.06803521 0.17097172 0.6666891 -0.0014073012 0.31782186 -0.14894842 -0.06853668 0.097407244
0.6677761 0.27775267 0.036095906 -0.6534034 -0.2902426 0.31159914 -0.37968013 0.32441103
0.06639552 -0.7455431 -0.37749666 0.05474503 -0.68151116 -0.23475072 0.42893696 0.30433643
-0.21638124 -0.5950135 0.06527566 0.10016112 -0.1864505 0.39944264 -0.2745941 -0.22086948
-0.4363797 -0.19987968 0.4105096 0.18967298 0.119092114 -0.36372414 0.122139536 0.06783191

actor_mean.0.bias f4 [64]
00000000: 9a43 51bd 9c28 3abe 0184 a13e f3ab fd3e
00000010: e3c6 763c 7eb5 e5bc 7ed3 04be 5f5f b63e
00000020: 7996 62be 2bc5 c83d 3557 84bd a11b c4be
00000030: 15f2 cf3e 48e8 a13c 4bad b9bd 13db 40be
00000040: 2d91 b33e 45ed 45be e010 56be f6bc 143e
00000050: e6d7 393d e1a2 4cbf ac0e 643e 3b40 603e
00000060: 7045 43bd 903e a13e 26e8 3b3d deaf 07bd
00000070: ef98 21bd cfa0 80be 7020 3f3e 3d20 083d
00000080: 2871 41be 37f1 da3b bc0c 893e 3ac2 34be
00000090: da93 7a3d a0da 983d dab4 84be 6495 c5bd
000000a0: d244 043e 4456 8bbe 7b82 693e 7f29 b8be
000000b0: 50f1 9f3d f002 0e3e 88cb 15be d5bd 40be
000000c0: f844 a5bd 96c4 a03c 73ee f73d 595a 6a3e
000000d0: 2ec0 24be a181 6ebd 098c 8abd c718 1c3e
000000e0: a9f3 65bd f471 4bbd 22f1 7e3e 4f1c ba3e
000000f0: e7a4 11be 1e8d 3f3e b41d 8ebe b109 cd3e
-0.05108986 -0.18179554 0.31546023 0.4954525 0.015062067 -0.028040644 -0.12971303 0.35619637
-0.22127713 0.09803232 -0.06461946 -0.3830233 0.4061438 0.01976408 -0.09066256 -0.1883357
0.35071698 -0.19328792 -0.20904875 0.14525208 0.045371912 -0.79936033 0.22271222 0.21899502
-0.047673643 0.31493044 0.04587569 -0.033126704 -0.03945249 -0.25122687 0.18664718 0.03323387
-0.18890822 0.006681587 0.26767528 -0.17652217 0.06117616 0.074635744 -0.2591923 -0.096476346
0.12916878 -0.27214253 0.2280368 -0.3596916 0.078096986 0.13868308 -0.14628422 -0.18822415
-0.08069795 0.01962499 0.121060275 0.22886027 -0.16088936 -0.058229093 -0.06764991 0.15243827
-0.056140576 -0.04966922 0.24896672 0.36349723 -0.14223062 0.18706176 -0.27757037 0.40046456

actor_mean.2.weight f4 [64, 64]
00000000: 7027 be3d 2940 dfbd 1a49 61be e1df 2e3e
00000010: 9d4f 483d e44d 03be 7d29 b9bd 975c 243e
00000020: 0544 cdbd 5523 9a3e 6f87 843d 0377 723d
00000030: c5ab 3a3e 6ac7 10be 7ffb 88be 7bf7 a03d
00000040: b1a7 4fbd 6d8f 71be 6128 d7bc 6c3f 6e3d
00000050: dea8 493d 55aa d43d 4014 273d 5152 8abe
00000060: 2d4f bb3e 0c45 edbd 03fb 8fbe 5fa1 613e
00000070: 3960 423e d451 71bd 2c60 84bd 0aa4 323e
00000080: ab0d 34be ea38 ffbd 55d0 933c f2e9 2b3f
00000090: f5cc b6bd acac 6abe 3ae4 a5bd 3f2d a83d
000000a0: fc16 a8bd 86fd 18bc 4b48 febd 3acf a53a
000000b0: 9f5b 58bd 07c5 ab3d 946e 493b 9044 00bd
000000c0: dc2f 16be c718 9c3e 84a6 483e a94e 3d3e
000000d0: e4aa 90bc 26d3 9b3e 02ac b5be d763 b93d
000000e0: a604 633d 26f2 f4be 7480 c13e 49a7 d33e
000000f0: 4ea7 823e b768 9bbd e0c5 d93e 8834 523e
00000100: 8928 cdbd e2bc 903d ccf8 523e 4425 87be
00000110: 08c7 ad3d e384 a63d 34cb 82be a2e9 28be
00000120: 0d33 7b3d 98a9 fcbe 5fcf d73d 5ffa ecbc
00000130: 60bb 6d3d 58dc 2fbd 669b fa3d 693e 51bd
00000140: fdce 36be e78d dc3d a3a2 2c3e 7bf8 b83e
00000150: 4ff6 edbd 1f94 aebd fc79 47be 23c1 c63b
00000160: e408 03be d148 22be 5267 5b3c c14b 353d
00000170: edc7 36bd a4b8 74be 8f1a 933e cd49 0cbe
00000180: aabf df3e 5be9 1ebd 1b3e a6bb fa7e da3e
00000190: 2dce 333e 87f5 fbbd 258d 07be 5d99 463d
000001a0: 5f1a b7bc efab e63e 288c 5cbc c181 42bd
000001b0: f888 9abd 00bd 643e 9e4e 8a3e 9472 81be
000001c0: 3f5b 76bc 7747 063e 3a4a 863c 9ccc af3d
000001d0: 04af e53d b3c4 c4bd 1313 ff3d 5049 75be
000001e0: b4ca 2cbd 6ec9 52be f565 84bd f761 be3d
000001f0: c5a8 8dbe 5551 193e b515 04bd c72f 5b3e
00000200: 8a26 a2bd 9565 9dbe 8a85 36be 165e 0e3e
00000210: b497 1cbc 18c4 8cbe fbe5 b0bd 6cf9 bfbd
00000220: 8851 e33d 39ab a8be 2133 e93e 62dc 5a3e
00000230: 1046 8dbd af68 403c 6d42 a13d 04a4 04be
00000240: bcd3 b43e 7c9e 093e 67ed 1cbd e918 17be
00000250: fcaa c43e 1d00 fe3c 1a30 fdbc a89a 103e
00000260: f5af f0bd d885 72be 8666 a4bc 5fc8 5dbd
00000270: 4f35 0a3e ee58 de3d 1a85 643e 9634 00be
00000280: c3f0 e33d 2652 9cbe b6f3 e5be bd17 5c3d
00000290: 939a 7d3e 0475 79bc b2a2 5b3e c995 7d3e
000002a0: ecd7 033d f4af bbbd 265d dfbd 79a0 0cbd
000002b0: f79a 29be 3630 8dbb 301d 07be 75af 843e
000002c0: 8887 2bbe 0925 213e db52 733d 3d68 3fbe
000002d0: 802b 0a3d eab4 c93d fa0a 393e cce0 3d3c
000002e0: ec33 8f3d 208a b7bd 72c7 7bbe ae70 193e
000002f0: dd34 65be 52bf b03e 938c 823d a014 afbe
00000300: c8c1 c6bc 4d74 3a3e 963d b8bd 4044 00be
00000310: d786 183e a2e4 853d 2f49 c8bd c14e 08be
00000320: 88d3 06be 8c06 c0bd 2c92 3e3d 91e6 15bd
00000330: a882 8ebd cd2c 46bd 1c05 0c3e 212d 033e
00000340: ff26 74be 7c8a bb3d ea55 513e 0a55 84be
00000350: 2f3c 683d 5a6a b9bd 41fa ac3d afe3 62be
00000360: 3421 01be 4519 40bd 5874 173d c35b 683e
00000370: 48e2 0b3e 0fc7 89be 2c9a a8bd af18 593e
00000380: aa6c 48be b8f7 1dbe 048a 023e 30bd 8ebe
00000390: 5b8b e8be 64a0 7cbe 5176 fcbd ea75 01be
000003a0: a8c9 b93e e932 81bd 1731 8e3e 1619 37bd
000003b0: 0d48 cc3e 0a8a fdbd 2248 9cbd f28c 043e
000003c0: c71b 343e f973 d03d 051d b1bd 5d14 8fbe
000003d0: 8a1c 69be 4637 77bd 207b 883d b0ed 33be
000003e0: 6636 8dbe 00ad a1be d3c5 233e 2bca bf3e
000003f0: 99c0 b43e 303a 533e f796 fe3d c129 43be
0.09284866 -0.109009095 -0.22000542 0.1707759 0.04890405 -0.12822682 -0.090411164 0.16050945
-0.10022739 0.3010508 0.064711444 0.05919553 0.18229587 -0.1413857 -0.26754376 0.07859703
-0.050697032 -0.23589869 -0.026264371 0.058165953 0.04923331 0.10384051 0.040790796 -0.27015927
0.36583844 -0.11585435 -0.28121194 0.22034214 0.18982019 -0.058915928 -0.06463656 0.17445388
-0.17583339 -0.12462027 0.018043676 0.6715385 -0.08925811 -0.22917432 -0.081001714 0.08211755
-0.08207509 -0.009337788 -0.124161325 0.0012650259 -0.05282175 0.08387189 0.0030736076 -0.031315386
-0.14666694 0.30487654 0.1959477 0.18487038 -0.017659612 0.3043453 -0.35482794 0.09052246
0.055424355 -0.47840995 0.37793314 0.41338566 0.25518268 -0.07588332 0.4253378 0.20527852
-0.10017497 0.070672765 0.20602721 -0.2639562 0.08485228 0.08130815 -0.25545657 -0.16495374
0.061327983 -0.4934814 0.105376 -0.02892798 0.058040023 -0.042934746 0.12236671 -0.05108491
-0.17852397 0.10769253 0.16858916 0.36127076 -0.11619245 -0.085243456 -0.19480127 0.006065504
-0.1279636 -0.1584809 0.013391333 0.044261698 -0.044624258 -0.2389856 0.287312 -0.13700028
0.43700916 -0.038796764 -0.0050733215 0.42675 0.17559119 -0.1230269 -0.13237436 0.048486102
-0.022351442 0.4505305 -0.01346115 -0.047487024 -0.07545656 0.22337723 0.27013105 -0.2528273
-0.015036403 0.13113199 0.016392816 0.08583948 0.11215022 -0.0960783 0.1245481 -0.23953748
-0.0421855 -0.20584652 -0.06464759 0.09296029 -0.27667823 0.14972432 -0.032247264 0.21404944
-0.07917507 -0.30741563 -0.17824379 0.13903078 -0.009557653 -0.27493358 -0.08637615 -0.09373745
0.11099535 -0.32943133 0.4554682 0.21373132 -0.06898129 0.0117437085 0.07873998 -0.12953192
0.3531779 0.13439363 -0.038312342 -0.14755596 0.384117 0.031005913 -0.030906726 0.14121497
-0.11752311 -0.2368387 -0.020068418 -0.054146167 0.13496898 0.10856806 0.22316399 -0.1252006
0.11129906 -0.30531424 -0.449125 0.053733576 0.24765997 -0.015225653 0.21448782 0.2476417
0.03218834 -0.0916442 -0.109064385 -0.034332726 -0.1656302 -0.0043087257 -0.13194728 0.25915113
-0.1675092 0.15736784 0.05940519 -0.18692107 0.03373289 0.0984896 0.18070593 0.01158924
0.06992325 -0.08961892 -0.24587801 0.1498439 -0.22383447 0.34520966 0.06374469 -0.34195423
-0.024262324 0.18208428 -0.089961216 -0.12526035 0.14895187 0.06537749 -0.09779584 -0.13311292
-0.1316663 -0.09376249 0.04652612 -0.03659684 -0.069585145 -0.04838257 0.13673824 0.12810184
-0.23843001 0.09157273 0.2044293 -0.2584613 0.05669802 -0.09053488 0.0844617 -0.22157167
-0.12610322 -0.0468991 0.03697619 0.22691254 0.13660538 -0.26909682 -0.08232531 0.21200822
-0.19572702 -0.15426528 0.12747961 -0.27878714 -0.4541882 -0.24670559 -0.123272546 -0.12642637
0.36286664 -0.063085385 0.27771828 -0.04470166 0.3989872 -0.123798445 -0.07630946 0.12944391
0.17588721 0.1017837 -0.08648113 -0.27945223 -0.22764793 -0.060355447 0.06664109 -0.1757114
-0.27580565 -0.315773 0.15993433 0.3745893 0.3530319 0.20627666 0.12431138 -0.19058897

actor_mean.2.bias f4 [64]
00000000: 56da ca3c 79cb 05bd b17b d1bd f60f f33b
00000010: ef4c 103c 239b 60be d812 ae3c 0c83 3ebe
00000020: d78b 66be 9970 dfbb a556 183e 9a59 a53b
00000030: 6dc4 00bc fca1 2d3e ea66 b7bd ff83 ddbb
00000040: 1cd0 2cbe c92a 1d3e 9fac 51bd 985b fa3d
00000050: 9382 16be c450 1a3d 7788 aebc 3038 87be
00000060: 5b31 bcbd d6f3 64be 3286 113e b833 7fbc
00000070: ba09 033d d2fe 20be 1129 eabd 18a3 cebd
00000080: 6d3a cbbd 0e7b a6bc dbd8 2c3d eaa3 73be
00000090: 7511 dabc 9c33 c63c 937a 1f3e 3b8d 41be
000000a0: 4363 1a3e c4b8 4ebc 9538 a93d e9ea a0bc
000000b0: 1a58 363e b435 43be 0362 0ebe 0d25 30be
000000c0: a6a6 66bb ecba 993d abae 20be 6304 36be
000000d0: da46 f7bd f4da 8d3e 16dd 66be 4b95 3f3e
000000e0: d848 703e 0d69 ec3c a190 1c3e d35a b93c
000000f0: ec45 333b 660e 69be c942 163c a7db 733c
0.024762314 -0.03266475 -0.102286704 0.007417674 0.008807405 -0.2193418 0.02124922 -0.18604678
-0.22514282 -0.0068188426 0.14876802 0.0050460817 -0.007859332 0.16956323 -0.08955176 -0.00676012
-0.16876262 0.15348352 -0.051190015 0.12224501 -0.14698248 0.03767468 -0.021305306 -0.26410055
-0.09189101 -0.22358641 0.14211348 -0.015576296 0.031991698 -0.15722206 -0.11433614 -0.100897014
-0.09923253 -0.020322349 0.042198997 -0.23792997 -0.026619652 0.024194531 0.15574102 -0.18901531
0.15076928 -0.012617294 0.08262745 -0.019643264 0.17807046 -0.19063455 -0.13904576 -0.17201634
-0.0035194545 0.07506356 -0.1569163 -0.17775111 -0.12074061 0.2770611 -0.22545275 0.18709294
0.23465288 0.028858686 0.15289547 0.022626316 0.002735491 -0.22759399 0.009171196 0.014883912

actor_mean.4.weight f4 [1, 64]
00000000: 2059 1cbe d2cd ad3d d67c af3d 7fbd 91be
00000010: 970b 1fbe 2314 453e 8d1c 87bd 00ce cc3d
00000020: e377 b7be 1414 09be 6c14 08be 9023 f3bd
00000030: b02a 373d e9c5 10be 856d 263e c96c 8a3e
00000040: 25d9 bcbd 2e3a 933e 023a 943d eedc a6be
00000050: b0b6 803e 2de2 17be 59b9 01be f139 1e3e
00000060: 99d7 26be 16e6 91be d41e b2bd f1b6 9cbe
00000070: e3af 07be 214f aa3e 97dc b93d 7475 5a3e
00000080: 8844 97bd 7275 06bd a5cb 413d 2578 40be
00000090: f41e 903d a156 0b3e bd6d eb3d 8dca acbd
000000a0: 9b82 693e dc3b 413e 80c6 5f3e 791b 283e
000000b0: 5dba 21be 60aa ef3d 37b2 6cbe 25d0 bbbe
000000c0: e6d1 763e 59f4 cabd c238 a83d c7cc c8bd
000000d0: 4a90 46be bc80 8b3e fa6c 9fbe 88c9 b13e
000000e0: f226 abbe f292 01be 0ef8 a2be 3cd7 463e
000000f0: 23d3 7d3d 59e4 84be 207f 603d 9318 f0bc
-0.15268373 0.08486523 0.085687324 -0.28464887 -0.15531765 0.19245963 -0.065972425 0.10000229
-0.35833654 -0.13386565 -0.1328904 -0.118720174 0.044718444 -0.14137997 0.16252716 0.2703612
-0.092211045 0.28755325 0.072376266 -0.3259043 0.2513938 -0.14832373 -0.12668361 0.1545179
-0.16293181 -0.28495854 -0.08697286 -0.30608323 -0.13250689 0.33263496 0.09075277 0.21333867
-0.07386118 -0.03282685 0.04731335 -0.18795832 0.07037154 0.13607265 0.1149554 -0.08437071
0.22803728 0.18870491 0.21853065 0.1641673 -0.15793748 0.11702418 -0.23114859 -0.3668224
0.24103507 -0.09909887 0.08213951 -0.09804683 -0.1939098 0.27246654 -0.3113783 0.3472407
-0.3342815 -0.12653711 -0.31829876 0.19418043 0.061968934 -0.25955465 0.054808736 -0.029308593
